image_change_detection/change_detector/SAR_model/model/checkpoints/checkpoints_DCP3_val_0.111915.pth (torch, 12190 bytes, 13 tensors)

conv_1.conv.0.weight f4 [12, 2, 2, 2]
0.19775975 -0.28824452 -0.29741943 -0.39692172 0.16632715 -0.01442577 0.26032886 -0.06982857
0.15266117 -0.17212613 0.22057348 -0.15502463 -0.3391508 -0.34662107 0.22731829 -0.23177828
-0.14668559 0.3064691 0.29442945 -0.18864946 -0.01249918 -0.29304853 -0.3473068 0.11017876
-0.059823763 -0.3557139 0.021153115 0.18255265 -0.04165564 0.26046532 0.24062398 0.15459253
-0.33150598 0.29467463 -0.3451817 0.014664359 0.14039092 -0.33024362 0.331983 0.14009355
-0.3222453 -0.03514896 0.22395103 -0.30051517 -0.11196631 -0.37300527 0.1521868 -0.027280746
-0.18187858 -0.1440627 0.12222471 -0.20423475 -0.3059619 -0.06735383 -0.13462564 0.22756429
-0.37826803 -0.09446755 0.30070394 -0.27437985 0.0054310686 -0.18614577 -0.01082987 -0.3291358
0.26915184 -0.102038465 -0.14358416 0.19301343 -0.27796602 -0.0049472754 0.06739779 -0.2778691
0.23480433 0.21357119 0.18988435 0.27945226 -0.25836036 -0.23709998 -0.26528898 -0.27947915
0.2950781 0.04976667 0.09917904 0.3073239 -0.14670877 0.15326078 -0.014156515 -0.09474965
-0.27638555 0.14533716 -0.19151285 -0.20746908 0.2891936 -0.22861943 0.1581952 0.09262986
00000000: 8881 4a3e c994 93be 5c47 98be 5339 cbbe
00000010: aa51 2a3e 115a 6cbc d349 853e 4802 8fbd
00000020: 3653 1c3e d541 30be 04de 613e c7be 1ebe
00000030: 2ca5 adbe 5178 b1be 20c6 683e 4957 6dbe
00000040: bf34 16be 85e9 9c3e 75bf 963e 532d 41be
00000050: 5cc9 4cbc 750a 96be 32d2 b1be 67a5 e13d
00000060: c309 75bd 2220 b6be 4c49 ad3c 15ef 3a3e
00000070: 1b9f 2abd b65b 853e 2266 763e 814d 1e3e
00000080: 27bb a9be 98df 963e a8bb b0be c842 703c
00000090: a3c2 0f3e b115 a9be adf9 a93e af74 0f3e
000000a0: 56fd a4be 5bf8 0fbd 6b53 653e 20dd 99be
000000b0: 984e e5bd 8cfa bebe dbd6 1b3e df7b dfbc
000000c0: 613e 3abe 2c85 13be f350 fa3d ea22 51be
000000d0: 0aa7 9cbe cef0 89bd 4edb 09be 9d06 693e
000000e0: 59ac c1be 3478 c1bd def5 993e 847b 8cbe
000000f0: 1bf7 b13b ff9c 3ebe c46f 31bc 7d84 a8be
00000100: 45ce 893e 8bf9 d0bd ba07 13be 50a5 453e
00000110: 9051 8ebe c11c a2bb da07 8a3d dc44 8ebe
00000120: 8c70 703e 68b2 5a3e 0b71 423e 5e14 8f3e
00000130: cf47 84be 56ca 72be f5d3 87be e417 8fbe
00000140: 7a14 973e 23d8 4b3d 611e cb3d 8f59 9d3e
00000150: d33a 16be 65f0 1c3e baf0 67bc 1b0c c2bd
00000160: 6882 8dbe 44d3 143e f21b 44be c672 54be
00000170: 2f11 943e 361b 6abe ecfd 213e b9b4 bd3d

conv_1.conv.0.bias f4 [12]
0.18490727 -0.29730728 -0.052380145 0.20084399 0.33930662 0.12752894 -0.22583836 -0.0661278
0.13864255 0.20420134 0.11853278 -0.061210904
00000000: 5558 3d3e a938 98be 908c 56bd 0caa 4d3e
00000010: 99b9 ad3e f296 023e 2c42 67be 036e 87bd
00000020: 50f8 0d3e 281a 513e 50c1 f23d 49b8 7abd

conv_1.conv.1.weight f4 [12]
0.95429504 0.9522214 0.9924622 0.939289 0.9529449 0.95035547 1.0005652 1.0240176
1.0159985 1.0623181 0.97262985 1.0346003
00000000: ae4c 743f c8c4 733f 0112 7e3f 3e75 703f
00000010: 32f4 733f 7f4a 733f 8512 803f 0213 833f
00000020: 3d0c 823f 0afa 873f 45fe 783f c86d 843f

conv_1.conv.1.bias f4 [12]
-0.019568551 -0.011860935 -0.08962625 0.07303497 -0.09010512 -0.05974126 0.043254633 -0.01646024
-0.07521169 -0.05069988 0.032224104 -0.10052304
00000000: 3a4e a0bc 5e54 42bc f88d b7bd 5c93 953d
00000010: 0889 b8bd 40b3 74bd c52b 313d a0d7 86bc
00000020: 9608 9abd adaa 4fbd 6cfd 033d 06df cdbd

conv_1.conv.1.running_mean f4 [12]
-33.473217 -40.387695 -15.489583 24.047075 -7.7356353 -53.00155 -46.443527 -64.18388
-15.665017 -0.74687725 46.48513 -17.71022
00000000: 93e4 05c2 008d 21c2 55d5 77c1 6960 c041
00000010: 538a f7c0 9601 54c2 2cc6 39c2 265e 80c2
00000020: e9a3 7ac1 5933 3fbf c6f0 3942 88ae 8dc1

conv_1.conv.1.running_var f4 [12]
1983.9093 2850.5105 853.5426 1344.3296 1048.4678 2087.0808 1356.8247 2311.3708
671.14136 2142.7642 859.08374 690.62976
00000000: 19fd f744 2b28 3245 ba62 5544 8c0a a844
00000010: f80e 8344 4b71 0245 649a a944 ef75 1045
00000020: 0cc9 2744 3aec 0545 5cc5 5644 4ea8 2c44

conv_2.conv.0.weight f4 [24, 12, 2, 2]
0.08422319 -0.011071978 -0.06714942 0.033756483 0.1467339 0.08339896 -0.07708629 -0.057052452
0.023861505 0.00066157733 0.096300244 0.15046556 0.012386288 0.06309291 0.009946396 -0.012389338
0.04556335 -0.04509975 0.033336844 -0.002600626 -0.09248566 -0.029028062 0.06357093 -0.088410184
0.08323853 -0.11360491 0.008701138 0.055246845 -0.006266607 -0.09580543 0.02477464 0.05525834
-0.06453892 0.13854732 0.0791362 0.07960465 0.15527824 0.058247864 -0.065227814 8.455954e-05
-0.10999008 -0.122508824 0.061657097 -0.035499945 0.024391366 0.178125 0.112072304 -0.020481523
-0.004614862 -0.116261326 0.00476496 -0.018308733 -0.10696202 -0.10858604 0.05155986 0.07405714
-0.08362851 -0.10560939 0.037456743 -0.10513042 -0.1310469 -0.12396205 0.024692738 -0.09394939
0.006589973 0.054738153 -0.05182749 -0.053746164 -0.06861421 -0.10305204 -0.17865665 -0.01232911
0.057918552 -0.047483638 -0.014724631 0.016870582 0.054646097 0.113105685 0.024565754 -0.080633715
0.0012796245 -0.10267992 -0.066731796 0.025807124 -0.13135092 -0.17826338 -0.1172086 -0.12892306
0.08415809 0.01687134 0.07229972 0.03558555 -0.012621787 -0.14471935 -0.14150503 0.017999288
0.10527648 0.0025564237 -0.0131795565 0.14761384 0.0017893541 0.061043143 -0.018288758 -0.03207268
0.17376359 -0.0070941052 -0.055474915 0.03284826 -0.10196546 0.009424319 -0.048592303 -0.0006723855
-0.048771475 0.13672021 -0.062027298 0.02252332 0.11303756 0.05351991 -0.0662391 0.014687288
0.011569842 0.044848654 0.053462498 0.10908233 -0.18358965 -0.15114395 -0.08668418 -0.014703154
-0.046957742 0.027179053 0.0059839753 0.09007596 0.071128555 0.076358445 0.11146883 0.030803505
0.06749255 -0.06642768 -0.012710171 -0.13648234 0.008864558 0.02812174 0.11097323 0.046683893
-0.00548597 0.07125956 -0.08370662 -0.02593165 0.08441273 0.15700135 -0.14584483 -0.11274643
-0.11042022 -0.10874474 -0.015554987 0.017226 0.06680195 -0.11523851 0.056538068 -0.134948
-0.008550452 -0.13765818 -0.08039121 -0.07581281 0.025773322 -0.072234385 0.10387986 -0.03637159
-0.057466697 0.09116137 0.105249606 -0.0142176915 -0.04000759 -0.07364154 -0.1396094 -0.05187581
-0.17971587 -0.11471861 0.009374173 -0.1740609 0.012680413 -0.10490034 -0.06496354 -0.047809567
0.13536261 -0.020873267 -0.03902902 0.06559167 -0.099688984 -0.11245308 -0.060007047 -0.032282487
-0.026049098 -0.042804 0.08398736 -0.08432391 -0.039969537 0.07694291 -0.1099653 0.09894249
0.008103267 0.10197994 -0.064451545 0.05748584 0.036144447 0.105943196 0.07177043 -0.10321114
0.023685597 0.11343795 -0.024115179 -0.004746654 -0.07179513 -0.10678814 0.05884654 0.028002506
0.01773937 0.096630566 0.03391437 0.075372666 -0.12703395 -0.003814685 0.08783276 0.08730086
0.048331924 0.056771662 0.00427183 0.055355407 0.04552048 0.051352516 0.14954007 0.14345658
0.04037128 -0.14712581 -0.14443217 -0.027483856 0.11186511 -0.0022408902 0.022764245 0.14821742
-0.04871757 0.017071178 -0.032740276 -0.08723675 -0.06957934 0.11952849 -0.073733024 -0.067327395
-0.12747994 -0.13390987 -0.06991869 -0.061992634 -0.03971179 0.018196141 -0.09508483 0.0662582
00000000: 357d ac3d 3e67 35bc a385 89bd 3d44 0a3d
00000010: 6941 163e 13cd aa3d 6bdf 9dbd d5af 69bd
00000020: 3479 c33c b46d 2d3a 1039 c53d a513 1a3e
00000030: dbef 4a3c db36 813d 35f6 223c a6fc 4abc
00000040: a3a0 3a3d 84ba 38bd 378c 083d 446f 2abb
00000050: 1f69 bdbd 42cc edbc 7a31 823d 6610 b5bd
00000060: f678 aa3d b1a9 e8bd 388f 0e3c 844a 623d
00000070: 1c58 cdbb a335 c4bd 30f4 ca3c 9256 623d
00000080: fb2c 84bd 59df 0d3e 2912 a23d c307 a33d
00000090: 4201 1f3e 5095 6e3d 2996 85bd 8f55 b138
000000a0: 7b42 e1bd e8e5 fabd 278c 7c3d 6468 11bd
000000b0: 67d0 c73c 6666 363e 2a86 e53d dec8 a7bc
000000c0: 4538 97bb 6b1a eebd 6223 9c3b 32fc 95bc
000000d0: e70e dbbd 5c62 debd 6f30 533d 45ab 973d
000000e0: 6d45 abbd bc49 d8bd 3e6c 193d 9e4e d7bd
000000f0: 2931 06be d1df fdbd 6d48 ca3c 8a68 c0bd
00000100: b3f0 d73b 1d35 603d 1049 54bd f024 5cbd
00000110: 9b85 8cbd f30c d3bd c5f1 36be 0900 4abc
00000120: 013c 6d3d 347e 42bd 943f 71bc 2d34 8a3c
00000130: 96d4 5f3d f4a3 e73d 1f3e c93c 4a23 a5bd
00000140: 13b9 a73a da49 d2bd aeaa 88bd 7669 d33c
00000150: db80 06be ad8a 36be 100b f0bd 6804 04be
00000160: 145b ac3d c435 8a3c e011 943d 27c2 113d
00000170: 9dcb 4ebc 4f31 14be b2e6 10be 3e73 933c
00000180: 329b d73d ac89 273b 11ef 57bc 1528 173e
00000190: c388 ea3a 6008 7a3d 4ed2 95bc a45e 03bd
000001a0: 15ef 313e ab75 e8bb aa39 63bd e68b 063d
000001b0: 44d3 d0bd 7568 1a3c b908 47bd 0743 30ba
000001c0: 99c4 47bd 6200 0c3e 5610 7ebd d382 b83c
000001d0: 3c80 e73d b137 5b3d 5ea8 87bd f3a2 703c
000001e0: 6f8f 3d3c 39b3 373d 7efb 5a3d 8e66 df3d
000001f0: edfe 3bbe 7bc5 1abe 7a87 b1bd 7fe5 70bc
00000200: c356 40bd 9ba6 de3c 3915 c43b bf79 b83d
00000210: d9ab 913d d161 9c3d c549 e43d a257 fc3c
00000220: 8939 8a3d 3c0b 88bd 523e 50bc 07c2 0bbe
00000230: a73c 113c 905f e63c ef45 e33d 9c37 3f3d
00000240: a7c3 b3bb 88f0 913d 606e abbd 9d6e d4bc
00000250: 95e0 ac3d f6c4 203e 5958 15be 9ae7 e6bd
00000260: ff23 e2bd 90b5 debd 58da 7ebc 8a1d 8d3c
00000270: 76cf 883d 2b02 ecbd 7694 673d cf2f 0abe
00000280: 3217 0cbc 44f6 0cbe 26a4 a4bd bf43 9bbd
00000290: 9322 d33c 9fef 93bd f7be d43d 60fa 14bd
000002a0: 3362 6bbd d0b2 ba3d 1b8d d73d 52f1 68bc
000002b0: 00df 23bd 60d1 96bd c4f5 0ebe bb7b 54bd
000002c0: 7007 38be 97f1 eabd 2296 193c 053d 32be
000002d0: 82c1 4f3c fdd5 d6bd 9b0b 85bd f7d3 43bd
000002e0: 7f9c 0a3e 6afe aabc e5dc 1fbd ed54 863d
000002f0: bd29 ccbd cd4d e6bd f3c9 75bd a43a 04bd
00000300: eb64 d5bc 3f53 2fbd 9101 ac3d 04b2 acbd
00000310: 19b7 23bd 3f94 9d3d 7d35 e1bd 5ca2 ca3d
00000320: 91c3 043c dcda d03d 2cff 83bd 4676 6b3d
00000330: 330c 143d bff8 d83d 60fc 923d 5d60 d3bd
00000340: 4c08 c23c 2852 e83d 328d c5bc d289 9bbb
00000350: 5309 93bd beb3 dabd 1209 713d 8365 e53c
00000360: 2852 913c 3fe6 c53d cbe9 0a3d fc5c 9a3d
00000370: 3015 02be cbff 79bb a9e1 b33d cbca b23d
00000380: b2f7 453d 6789 683d b5fa 8b3b 5abc 623d
00000390: af73 3a3d 0457 523d 0821 193e 48e6 123e
000003a0: 5b5c 253d 26a8 16be 07e6 13be d325 e1bc
000003b0: 8919 e53d e6db 12bb 157c ba3c 4fc6 173e
000003c0: 138c 47bd dbd8 8b3c ab1a 06bd 2ea9 b2bd
000003d0: 9d7f 8ebd 5acb f43d 5701 97bd f2e2 89bd
000003e0: 1a8a 02be ab1f 09be 8831 8fbd fdeb 7dbd
000003f0: d4a8 22bd 1310 953c d6bb c2bd 61b2 873d

conv_2.conv.0.bias f4 [24]
0.074666 -0.088773765 0.09320663 0.1318989 -0.08533892 -0.070826784 -0.13680662 -0.057507664
-0.10421977 0.11820539 -0.077922136 -0.04718798 -0.11241583 0.079883784 0.09404489 -0.08921868
-0.08626427 0.05658053 0.05458742 0.018685248 -0.0073692882 0.028389012 0.06890648 -0.08783005
00000000: 7dea 983d 05cf b5bd 1ee3 be3d 8110 073e
00000010: 2cc6 aebd a20d 91bd 0917 0cbe 288d 6bbd
00000020: 2d71 d5bd ab15 f23d a495 9fbd 2f48 41bd
00000030: 453a e6bd 1c9a a33d 9b9a c03d 49b8 b6bd
00000040: 52ab b0bd fcc0 673d 0f97 5f3d ce11 993c
00000050: 127a f1bb 1390 e83c d71e 8d3d 3ee0 b3bd

conv_2.conv.1.weight f4 [24]
1.2075285 1.1406685 1.2008028 1.1433847 1.1578972 1.0411477 1.1682912 1.047647
1.1444606 1.0624162 1.2032022 1.2080923 1.0449687 1.154132 1.2016605 1.1050134
1.0594339 1.238017 1.1641934 1.1200392 1.2152747 1.1835272 1.1562828 1.2384762
00000000: 4b90 9a3f 6d01 923f e8b3 993f 6e5a 923f
00000010: fa35 943f 5444 853f 918a 953f 4c19 863f
00000020: af7d 923f 41fd 873f 8802 9a3f c5a2 9a3f
00000030: 89c1 853f 99ba 933f 03d0 993f 1471 8d3f
00000040: 889b 873f 5777 9e3f 4a04 953f 725d 8f3f
00000050: 1f8e 9b3f d27d 973f 1301 943f 6386 9e3f

conv_2.conv.1.bias f4 [24]
0.14468107 0.028048873 0.14205475 0.024489347 0.12849995 0.013509935 0.13623157 -0.023875182
0.117522836 0.017048793 0.14775625 0.15304168 0.00017581774 0.1265773 0.13965037 0.01755322
-0.021826753 0.124053694 0.1339551 0.06806358 0.14157629 0.13435154 0.03388696 0.12687422
00000000: 4627 143e c0c6 e53c cd76 113e e29d c83c
00000010: 7e95 033e c658 5d3c 4a80 0b3e e395 c3bc
00000020: d0af f03d e9a9 8b3c 6a4d 173e f5b6 1c3e
00000030: b75b 3839 7b9d 013e 8200 0f3e c5cb 8f3c
00000040: 05ce b2bc dd0f fe3d 872b 093e eb64 8b3d
00000050: 60f9 103e 7393 093e 0ecd 0a3d 51eb 013e

conv_2.conv.1.running_mean f4 [24]
0.54976326 -1.3357898 0.49428967 -0.96195465 0.52946335 -0.59550244 0.33612266 -0.6381747
0.38860896 -0.7530643 1.1064482 0.6603502 -1.1903272 0.41044387 0.5604796 -1.442851
-0.80172 0.31213287 0.6467098 0.87244844 0.531173 0.5487141 -0.5914668 0.23132388
00000000: 49bd 0c3f 29fb aabf 8913 fd3e a942 76bf
00000010: e98a 073f d972 18bf 4518 ac3e 6b5f 23bf
00000020: c1f7 c63e d2c8 40bf 18a0 8d3f b60c 293f
00000030: a45c 98bf b325 d23e 977b 0f3f 57af b8bf
00000040: 863d 4dbf e1cf 9f3e c68e 253f c858 5f3f
00000050: f4fa 073f 8778 0c3f 5e6a 17bf 2be0 6c3e

conv_2.conv.1.running_var f4 [24]
0.062790275 0.15009072 0.063670024 0.1056244 0.08463066 0.0745465 0.058043774 0.04426828
0.044266522 0.13618758 0.12497337 0.08960121 0.15542942 0.06322284 0.052596446 0.14232025
0.10020036 0.2995254 0.07505312 0.122385934 0.20171404 0.07781178 0.08539163 0.15952568
00000000: 3098 803d 62b1 193e 6e65 823d 9b51 d83d
00000010: d752 ad3d d6ab 983d 4fbf 6d3d a852 353d
00000020: d050 353d c274 0b3e 0af2 ff3d d780 b73d
00000030: e428 1f3e fa7a 813d 5f6f 573d 66bc 113e
00000040: d935 cd3d 655b 993e 73b5 993d 7aa5 fa3d
00000050: 208e 4e3e c85b 9f3d cfe1 ae3d b35a 233e

flaten.conv.0.weight f4 [1, 24, 1, 1]
-0.15275241 0.22221018 -0.22154674 0.17440638 -0.22213553 0.08637214 -0.20480005 0.23050226
-0.3049889 0.25010756 -0.1494996 -0.1358475 0.1601543 -0.25499803 -0.26506367 0.16533129
0.10557636 -0.16268525 -0.2371207 -0.2860058 -0.16435887 -0.18598843 0.16914062 -0.1687844
00000000: 216b 1cbe 118b 633e 26dd 62be 9697 323e
00000010: 7f77 63be e0e3 b03d 1bb7 51be c908 6c3e
00000020: 8127 9cbe 190e 803e 6c16 19be 9b1b 0bbe
00000030: 7dff 233e 1a8f 82be 6db6 87be 9b4c 293e
00000040: 6b38 d83d f696 26be c5cf 72be 5a6f 92be
00000050: b14d 28be c073 3ebe 3333 2d3e d1d5 2cbe
