image_change_detection/change_detector/SAR_model/model/checkpoints/checkpoints_DCP6_val_0.083317.pth (torch, 12190 bytes, 13 tensors)

conv_1.conv.0.weight f4 [12, 2, 2, 2]
0	0x3e381770	0.1797769
1	0xbe978750	-0.29595423
2	0xbe9a82d0	-0.30177927
3	0xbecf76ed	-0.4052042
4	0x3e2fdb0d	0.17173405
5	0x3bb8051f	0.005615845
6	0x3e836840	0.25665474
7	0xbd4c9dc4	-0.049955145
8	0x3e19d496	0.15022501
9	0xbe29a8c5	-0.16568287
10	0x3e5599f3	0.20859508
11	0xbe2f9e91	-0.17150332
12	0xbeb3579e	-0.35027784
13	0xbeba3475	-0.36368147
14	0x3e5bcff8	0.21466053
15	0xbe617500	-0.22017288
16	0xbe017af9	-0.12644567
17	0x3e96a12e	0.29419845
18	0x3e9657c3	0.29363832
19	0xbe47bda0	-0.1950593
20	0x3ba35bdc	0.0049853157
21	0xbea06454	-0.31326544
22	0xbeb49c2d	-0.35275403
23	0x3de0bdf2	0.10973729
24	0xbd6c72b9	-0.057726596
25	0xbeb7b2e7	-0.3587868
26	0xb844cdd0	-4.692172e-05
27	0x3e26288f	0.1622641
28	0xbcd5a7d8	-0.02608101
29	0x3e93fafb	0.2890242
30	0x3e5a635f	0.2132697
31	0x3e148b59	0.14506282
32	0xbea83aa1	-0.3285723
33	0x3e95e17c	0.29273593
34	0xbeb49387	-0.35268804
35	0xbbf2ed2b	-0.0074135265
36	0x3e0fd557	0.14046226
37	0xbea79f4c	-0.3273872
38	0x3ea9e468	0.33182073
39	0x3e0f5c4a	0.14000049
40	0xbea5f033	-0.3240982
41	0xbcc4f8af	-0.024044363
42	0x3e5923a4	0.21205002
43	0xbea02fe7	-0.31286547
44	0xbde36457	-0.11103123
45	0xbec20121	-0.37891486
46	0x3e119335	0.14216311
47	0xbc9fa515	-0.019487897
48	0xbe1c8871	-0.15286423
49	0xbe1f4e62	-0.15557244
50	0x3dee778c	0.116438955
51	0xbe64f69d	-0.223597
52	0xbea05a69	-0.31318977
53	0xbd90973c	-0.07060096
54	0xbe104ec7	-0.14092551
55	0x3e5ef463	0.21772914
56	0xbec85c2c	-0.39132822
57	0xbdbf9d12	-0.09356131
58	0x3e95fd7c	0.29294956
59	0xbe87192e	-0.26386398
60	0xb9e53c3a	-0.00043723156
61	0xbe34581e	-0.17611739
62	0xbcc33ffa	-0.023834217
63	0xbea9b739	-0.331476
64	0x3e81c8ef	0.25348613
65	0xbdccf76e	-0.10008131
66	0xbe16c649	-0.14724077
67	0x3e48a9b3	0.19595985
68	0xbe93f331	-0.28896478
69	0x3bc80378	0.006103929
70	0x3d7c0973	0.06153245
71	0xbe93c571	-0.28861573
72	0x3e6b795d	0.22995515
73	0x3e5b12b8	0.2139386
74	0x3e546b5a	0.20744076
75	0x3e93f198	0.2889526
76	0xbe81622d	-0.25270215
77	0xbe6d48f0	-0.23172355
78	0xbe863d16	-0.2621848
79	0xbe8ad042	-0.27112013
80	0x3e97418b	0.29542193
81	0x3d50c7b0	0.050971687
82	0x3dc46d6f	0.09591185
83	0x3e9598e8	0.2921822
84	0xbe1d4774	-0.15359288
85	0x3e1628be	0.1466398
86	0xbce2123a	-0.027596582
87	0xbdd9eebd	-0.10641239
88	0xbe93a84f	-0.28839347
89	0x3e0e2bf1	0.1388395
90	0xbe534bf4	-0.20634443
91	0xbe5e7803	-0.21725468
92	0x3e8df1cb	0.27723536
93	0xbe53d4bd	-0.20686622
94	0x3e27264a	0.163232
95	0x3dd689e3	0.104755186

conv_1.conv.0.bias f4 [12]
0	0x3e3d5e60	0.18493032
1	0xbe9838ff	-0.29730985
2	0xbd563d23	-0.0523044
3	0x3e4d9dfc	0.20079798
4	0x3eadb405	0.33926407
5	0x3e029bdd	0.1275477
6	0xbe67414e	-0.22583506
7	0xbd876dcb	-0.06612738
8	0x3e0dfe34	0.13866502
9	0x3e510f0d	0.20415898
10	0x3df280f2	0.118410006
11	0xbd79ad9a	-0.060956575

conv_1.conv.1.weight f4 [12]
0	0x3f71d968	0.9447236
1	0x3f72b55b	0.94807976
2	0x3f7e8652	0.99423707
3	0x3f70b406	0.94024694
4	0x3f72835f	0.94731706
5	0x3f741ebb	0.9535939
6	0x3f810f85	1.0082861
7	0x3f83f07a	1.0307763
8	0x3f8133e0	1.0093956
9	0x3f887633	1.0661072
10	0x3f76ed6b	0.9645602
11	0x3f849f65	1.0361143

conv_1.conv.1.bias f4 [12]
0	0xbd20fc64	-0.0393032
1	0xbc0fd038	-0.008777671
2	0xbdb5a868	-0.088700116
3	0x3ddc12a4	0.10745743
4	0xbdd368af	-0.10322701
5	0xbd94ebe5	-0.07271556
6	0x3d5a3d91	0.05328137
7	0xbcf3e653	-0.029772913
8	0xbd9f4706	-0.077772185
9	0xbd4a9a41	-0.049463514
10	0x3d156eff	0.036482807
11	0xbe0c87e9	-0.1372372

conv_1.conv.1.running_mean f4 [12]
0	0xc20b579f	-34.835567
1	0xc22c63ed	-43.097584
2	0xc1706d29	-15.02665
3	0x41a301cc	20.375877
4	0xc125811a	-10.344019
5	0xc259e23c	-54.470932
6	0xc2431e93	-48.779858
7	0xc282a1e7	-65.316216
8	0xc1872c73	-16.896704
9	0x40904866	4.5088377
10	0x422f224d	43.783497
11	0xc1a11540	-20.135376

conv_1.conv.1.running_var f4 [12]
0	0x44fd54b4	2026.647
1	0x45332866	2866.525
2	0x4453bde1	846.96686
3	0x44940b8f	1184.3612
4	0x448601f5	1072.0612
5	0x44fd841c	2028.1284
6	0x44a7cd56	1342.4167
7	0x450c557a	2245.3423
8	0x442e8246	698.0355
9	0x45039c44	2105.7666
10	0x4450ef79	835.74176
11	0x443c24d5	752.5755

conv_2.conv.0.weight f4 [24, 12, 2, 2]
0	0x3d807051	0.06271423
1	0xbc765ca0	-0.015036732
2	0xbd8cac0c	-0.06868753
3	0x3d1b426b	0.037905138
4	0x3e1af0ce	0.15130922
5	0x3da06865	0.07832412
6	0xbda69434	-0.08133736
7	0xbd4eae20	-0.050459027
8	0x3c8ee261	0.01744193
9	0x3b255d66	0.0025232672
10	0x3dc6a51b	0.0969946
11	0x3e1f2526	0.15541515
12	0xbb722eb6	-0.0036954111
13	0x3dab78da	0.0837266
14	0x3c128789	0.008943447
15	0xbc2716bc	-0.010198291
16	0x3d612758	0.05496916
17	0xbd4be2b5	-0.04977675
18	0x3d6796e6	0.056540392
19	0xbbfd3311	-0.007727035
20	0xbda544dd	-0.08069775
21	0xbcee5f04	-0.029098041
22	0x3dadaa60	0.08479762
23	0xbdb89dc3	-0.09014466
24	0x3da27a54	0.079334885
25	0xbde85cca	-0.11345823
26	0x3cc548a3	0.024082487
27	0x3d52efce	0.051498227
28	0xbc1ffb33	-0.00976448
29	0xbdd0e810	-0.102005124
30	0x3d069c4f	0.03286391
31	0x3d510ca1	0.051037434
32	0xbd735e99	-0.059416387
33	0x3dff5db0	0.12469041
34	0x3d9757a8	0.07389766
35	0x3da2aac6	0.07942729
36	0x3e272e1f	0.16326188
37	0x3d777b8c	0.060420558
38	0xbd87c154	-0.06628671
39	0x3c7235a8	0.0147833
40	0xbddd6663	-0.10810544
41	0xbdeaa181	-0.11456586
42	0x3d76ff54	0.060302094
43	0xbcceab5f	-0.0252282
44	0x3cb77cfc	0.022398464
45	0x3e29f2dc	0.1659655
46	0x3e0214b9	0.12703218
47	0xbd0353ed	-0.03206246
48	0xbb2c42de	-0.0026284973
49	0xbe0588b6	-0.13040432
50	0x3c01ebac	0.007929724
51	0xbc6c2025	-0.014411961
52	0xbdca935b	-0.09891387
53	0xbde7eee5	-0.113248624
54	0x3d7c6de3	0.061628234
55	0x3d85169e	0.064984545
56	0xbdab6f65	-0.08370856
57	0xbddeaa16	-0.10872285
58	0x3ccb2ed7	0.024802608
59	0xbdd1134f	-0.10208761
60	0xbde2ccec	-0.11074242
61	0xbe04fef8	-0.12987888
62	0x3cfb5370	0.030679435
63	0xbdc21305	-0.09476284
64	0xbb43aa63	-0.0029856197
65	0x3d641137	0.05568048
66	0xbd741d36	-0.05959817
67	0xbd75ac3d	-0.059978712
68	0xbd878469	-0.06617052
69	0xbdc53ba8	-0.09630519
70	0xbe38e871	-0.1805742
71	0xbc90b0b2	-0.01766238
72	0x3d61f1cd	0.05516224
73	0xbd3a9299	-0.045549963
74	0xbd227780	-0.039664745
75	0x3bc7873a	0.0060891183
76	0x3d565a04	0.05233194
77	0x3de8f7e2	0.11375405
78	0x3d038eaf	0.032118496
79	0xbd9fa7d1	-0.0779568
80	0xbc60236f	-0.013680323
81	0xbdd2add7	-0.102870636
82	0xbda2c692	-0.079480305
83	0x3c9226f7	0.017840846
84	0xbdfd7a60	-0.12376857
85	0xbe2f8901	-0.17142107
86	0xbdeb5fd0	-0.11492884
87	0xbdec735c	-0.115454406
88	0x3dc2c31e	0.09509872
89	0x3cb86dc2	0.022513274
90	0x3da7e57c	0.081980675
91	0x3d519c31	0.051174346
92	0xbd15fb2d	-0.036616493
93	0xbe1170a3	-0.14203124
94	0xbe1841d2	-0.14868858
95	0x3c54b735	0.012983133
96	0x3d9ed0bf	0.07754659
97	0x3b1dff7f	0.0024108586
98	0xbb8e9e5c	-0.004352374
99	0x3e18220f	0.14856742
100	0x3c925239	0.017861472
101	0x3d84a4f5	0.064767756
102	0xbcb59b03	-0.022168642
103	0xbd19412f	-0.03741568
104	0x3e355094	0.1770652
105	0xbc7f14fc	-0.015568968
106	0xbd52b51a	-0.051442243
107	0x3d0e32e8	0.034716517
108	0xbdeba6d2	-0.11506428
109	0x3c15dea0	0.009147316
110	0xbd36ca3b	-0.044626456
111	0x3c84d27f	0.016213654
112	0xbd52fe1c	-0.05151187
113	0x3df74826	0.12074308
114	0xbd85d2ba	-0.065343335
115	0x3ceae5c4	0.028674014
116	0x3df07b6b	0.1174229
117	0x3d758069	0.059936915
118	0xbd8a3dd5	-0.06750075
119	0x3bed8629	0.007248659
120	0x3c272843	0.01020247
121	0x3d6e965c	0.058248863
122	0x3d85ecbd	0.06539295
123	0x3dd62555	0.10456339
124	0xbe44567b	-0.19173615
125	0xbe1c1261	-0.15241386
126	0xbdbf2f51	-0.09335197
127	0xbcb16a18	-0.021657035
128	0xbd4c61c6	-0.04989793
129	0x3caafd12	0.020872626
130	0x3bb8ea4c	0.0056431647
131	0x3db5ffad	0.08886657
132	0x3d9b4343	0.075811885
133	0x3dab9237	0.08377498
134	0x3de02124	0.10943821
135	0x3d25b44f	0.04045516
136	0x3d4f7876	0.05065199
137	0xbd91a87f	-0.07112216
138	0xbc84b0fa	-0.01619767
139	0xbe024089	-0.1271993
140	0xb9213bf5	-0.00015376492
141	0x3cb0524e	0.021523621
142	0x3dd8cc0e	0.10585795
143	0x3d2f4369	0.042788897
144	0xbc9017c8	-0.017589465
145	0x3d573c78	0.052547902
146	0xbda8a543	-0.08234646
147	0xbd4a5e9b	-0.04940663
148	0x3dc289d4	0.09498945
149	0x3e1ee2ce	0.15516207
150	0xbdf92f85	-0.12167267
151	0xbdf23cb8	-0.118279874
152	0xbdf56885	-0.11982826
153	0xbde5d739	-0.11222691
154	0xbc86f9d8	-0.016476557
155	0x3b245104	0.0025072703
156	0x3d867089	0.06564433
157	0xbdeefbee	-0.116691455
158	0x3d833087	0.0640574
159	0xbe11fc8b	-0.14256494
160	0xbcfee382	-0.031114344
161	0xbe00b394	-0.12568504
162	0xbd982885	-0.074296035
163	0xbd8e3ecf	-0.069455735
164	0x3d14af50	0.036300004
165	0xbd85e951	-0.06538642
166	0x3ddd38a3	0.10801818
167	0xbd17f6d0	-0.037100613
168	0xbd6f7f16	-0.058470808
169	0x3db83350	0.08994162
170	0x3dd2e1ab	0.10296949
171	0xbc858c1a	-0.016302157
172	0xbd218ae6	-0.039439104
173	0xbd9c8256	-0.07642047
174	0xbe123ae3	-0.14280276
175	0xbd6f3b95	-0.05840643
176	0xbe2c6076	-0.16833672
177	0xbde7d56e	-0.11320005
178	0xbb6adce1	-0.003583722
179	0xbe324afb	-0.17411415
180	0xba50d1db	-0.0007965841
181	0xbde2502a	-0.11050446
182	0xbd7b717b	-0.06138752
183	0xbd6842a8	-0.056704193
184	0x3e0620f4	0.13098508
185	0xbc5a52b6	-0.013325384
186	0xbce35dc7	-0.027754677
187	0x3d532b8c	0.0515552
188	0xbdef7a2a	-0.11693223
189	0xbde87804	-0.11351016
190	0xbd908d60	-0.07058215
191	0xbd2bb935	-0.041924674
192	0xbcc5683b	-0.024097553
193	0xbd12c2e6	-0.0358304
194	0x3db772d4	0.089574486
195	0xbd96c77d	-0.07362268
196	0xbd111d90	-0.035428584
197	0x3d98c57e	0.07459544
198	0xbdeb312c	-0.11483988
199	0x3dcf7b1c	0.10130903
200	0xbb8a9cbf	-0.0042301114
201	0x3dca8f45	0.09890608
202	0xbd45ec45	-0.048321027
203	0x3d936ac9	0.07198102
204	0x3d1e83bd	0.038699854
205	0x3ddf347a	0.10898681
206	0x3d88c836	0.06678812
207	0xbdcb825b	-0.09936973
208	0x3cf334ef	0.029688327
209	0x3dd07da9	0.10180218
210	0xbcbc7663	-0.02300567
211	0xbc4cc5e7	-0.0124983555
212	0xbd9584f4	-0.073007494
213	0xbddeff6f	-0.10888564
214	0x3d873164	0.066012174
215	0x3d073d6f	0.033017572
216	0x3ba240a0	0.0049515516
217	0x3dbf0e90	0.093289495
218	0x3cbf7216	0.02336983
219	0x3d9eecae	0.07759987
220	0xbe0d8bad	-0.13822813
221	0xbb3e004f	-0.0028991883
222	0x3dbdc999	0.09266967
223	0x3dc51108	0.09622389
224	0x3d2ba3eb	0.04190437
225	0x3d62b54a	0.055348672
226	0x3c3f86fc	0.011689898
227	0x3d74fe7e	0.059813015
228	0x3d3e7114	0.04649456
229	0x3d5a4958	0.053292602
230	0x3e2245b1	0.15846898
231	0x3e20188e	0.15634367
232	0x3d187b7b	0.037227135
233	0xbe13332b	-0.14374988
234	0xbe085901	-0.13315202
235	0xbcc3b39e	-0.02388936
236	0x3deb109d	0.11477778
237	0x3b0d7c45	0.0021588963
238	0x3ca3b599	0.019984053
239	0x3e15bcc0	0.14622784
240	0xbd83ae04	-0.06429675
241	0x3c17cdd3	0.009265381
242	0xbce4fd62	-0.027952854
243	0xbdc7674e	-0.09736501
244	0xbd79258b	-0.06082682
245	0x3df7f891	0.12107957
246	0xbd93c5b2	-0.07215442
247	0xbd80e810	-0.062942624
248	0xbe072295	-0.13196786
249	0xbe18e355	-0.1493047
250	0xbdad8103	-0.08471873
251	0xbd9fa16b	-0.0779446
252	0xbd5365c7	-0.051610734
253	0x3c8f5627	0.017497135
254	0xbdc2051f	-0.09473633
255	0x3d802f2e	0.06258999

conv_2.conv.0.bias f4 [24]
0	0x3d97da28	0.07414657
1	0xbdb66931	-0.089067824
2	0x3dbf9ed9	0.0935647
3	0x3e05620a	0.1302568
4	0xbdaee461	-0.085396536
5	0xbd90c583	-0.07068922
6	0xbe0c88ef	-0.13724111
7	0xbd660b7d	-0.0561633
8	0xbdd10927	-0.10206824
9	0x3df32cbb	0.11873766
10	0xbda20d24	-0.079126626
11	0xbd405d6e	-0.0469641
12	0xbde8da45	-0.113697566
13	0x3da2ba4e	0.07945691
14	0x3dc1a332	0.09454955
15	0xbdb69259	-0.08914632
16	0xbdb2db70	-0.08733261
17	0x3d684e20	0.05671513
18	0x3d659012	0.0560456
19	0x3c91a288	0.017777696
20	0xbbe13fbd	-0.0068740533
21	0x3cf0656d	0.029345239
22	0x3d8d4e14	0.06899658
23	0xbdb4054f	-0.08790075

conv_2.conv.1.weight f4 [24]
0	0x3fa3f71d	1.2809788
1	0x3f98d06c	1.1938605
2	0x3fa38a94	1.2776666
3	0x3f99f805	1.2028815
4	0x3f9c3aba	1.2205422
5	0x3f8cb2d5	1.0992075
6	0x3f9d72d7	1.2300671
7	0x3f8d4005	1.1035162
8	0x3f9a0011	1.203127
9	0x3f8e9a86	1.1140907
10	0x3fa4fb78	1.2889242
11	0x3fa34890	1.2756519
12	0x3f8b9536	1.090491
13	0x3f9b7399	1.2144653
14	0x3fa23d78	1.2675009
15	0x3f94b1c4	1.161675
16	0x3f8ed1b6	1.1157749
17	0x3fab2195	1.3369623
18	0x3f9d4f07	1.2289742
19	0x3f96110c	1.1723952
20	0x3fa707e2	1.3049281
21	0x3f9fbb43	1.2479023
22	0x3f9b9ff7	1.2158192
23	0x3faa7a71	1.3318616

conv_2.conv.1.bias f4 [24]
0	0x3e3a362b	0.18184726
1	0x3d1ad21f	0.037798043
2	0x3e369361	0.17829658
3	0x3d13c652	0.036077805
4	0x3e27a2d0	0.16370702
5	0x3cd083f6	0.025453549
6	0x3e355015	0.1770633
7	0xbc50c1b7	-0.012741498
8	0x3e17764b	0.14791219
9	0x3ce9b140	0.028526902
10	0x3e41faf9	0.18943395
11	0x3e424537	0.18971716
12	0x3c250ccc	0.010073852
13	0x3e214677	0.15749536
14	0x3e350fca	0.17681804
15	0x3ceb8476	0.028749686
16	0xbc2c6b61	-0.010523648
17	0x3e208423	0.15675406
18	0x3e33506a	0.17511144
19	0x3dc6ecc9	0.09713132
20	0x3e33cbb5	0.17558177
21	0x3e2ee72e	0.17080376
22	0x3d42127f	0.04738092
23	0x3e2570df	0.16156338

conv_2.conv.1.running_mean f4 [24]
0	0x3f1a1758	0.6019187
1	0xbfaf5355	-1.3697306
2	0x3eede276	0.46461838
3	0xbf879032	-1.059088
4	0x3f1b33ea	0.6062609
5	0xbf3b460c	-0.7315376
6	0x3efccf0e	0.4937672
7	0xbf3a472d	-0.72764856
8	0x3ec0ec00	0.37680054
9	0xbf4bc298	-0.795938
10	0x3f97fe38	1.1874456
11	0x3f2a7919	0.6659103
12	0xbfa47bde	-1.2850301
13	0x3ee2ab3a	0.4427126
14	0x3f1337a1	0.5750676
15	0xbfca4cea	-1.5804722
16	0xbf84dd22	-1.0379984
17	0x3e9f312d	0.31092206
18	0x3f21a81f	0.6314716
19	0x3f82785c	1.0192981
20	0x3f179d64	0.59224534
21	0x3f234343	0.6377451
22	0xbf46a874	-0.7760079
23	0x3e7fb81a	0.24972573

conv_2.conv.1.running_var f4 [24]
0	0x3d9c66ae	0.07636772
1	0x3e067646	0.13131055
2	0x3d930d78	0.07180303
3	0x3deaa4a4	0.11457184
4	0x3dbde625	0.09272412
5	0x3da782a8	0.081792176
6	0x3d8c71eb	0.06857666
7	0x3d553b8b	0.052058738
8	0x3d576532	0.05258674
9	0x3ddb4fe5	0.10708598
10	0x3df415cb	0.11918219
11	0x3dd775a3	0.10520484
12	0x3e156b73	0.1459177
13	0x3da1513f	0.078768246
14	0x3d84a7bd	0.06477306
15	0x3e0ee588	0.13954747
16	0x3de67546	0.11252837
17	0x3e6a14fd	0.22859569
18	0x3db393d2	0.08768429
19	0x3e0446e1	0.12917663
20	0x3e201f8e	0.15637037
21	0x3dbd2d31	0.09237135
22	0x3dc928ac	0.09822211
23	0x3dfec50c	0.124399275

flaten.conv.0.weight f4 [1, 24, 1, 1]
0	0xbe53afc4	-0.20672518
1	0x3e89d88a	0.2692302
2	0xbe906d8f	-0.28208587
3	0x3e669bf9	0.22520436
4	0xbe8b2e28	-0.27183652
5	0x3e07872a	0.13235155
6	0xbe828d98	-0.25498652
7	0x3e903ccc	0.28171384
8	0xbeb5f4a5	-0.3553821
9	0x3e98430e	0.2973866
10	0xbe561bf1	-0.20909096
11	0xbe3b4719	-0.1828884
12	0x3e4d7fef	0.20068334
13	0xbe9bdb24	-0.3044063
14	0xbea3c363	-0.31985006
15	0x3e5ac670	0.2136476
16	0x3e1b902f	0.1519172
17	0xbe6e4485	-0.23268326
18	0xbe94c57a	-0.29056913
19	0xbeaa1ecd	-0.33226624
20	0xbe6ad1ca	-0.2293159
21	0xbe716df0	-0.23577094
22	0x3e603adc	0.21897453
23	0xbe7278bc	-0.23678869
