image_change_detection/change_detector/SAR_model/model/checkpoints/checkpoints_DCP4_val_0.099460.pth (torch, 12190 bytes, 13 tensors)

conv_1.conv.0.weight f4 [12, 2, 2, 2]
00000000: a69f 423e a739 95be 25a1 9abe 09af cdbe
00000010: 200b 2c3e fe76 e3bb cb8f 833e 6d82 80bd
00000020: 883c 1d3e 55a5 2cbe 0a78 5a3e e93e 26be
00000030: d66e afbe 6e67 b5be fddd 623e 9b39 6bbe
00000040: 9653 0dbe ca58 9a3e b3b5 963e b57e 44be
00000050: 2a85 f3bb b209 9abe 3d49 b3be c0b4 df3d
00000060: aaca 74bd 7a9a b7be f7b8 373c 8e9f 303e
00000070: 8088 16bd 7aa0 8a3e 31b4 6c3e 0b44 1a3e
00000080: 1df0 a9be 6a7c 963e cd11 b3be bb9c a83b
00000090: 19f0 0e3e dcaa a8be 6dfd a83e e8fb 0e3e
000000a0: b099 a5be 71f5 edbc 2791 5f3e 2b72 9dbe
000000b0: cb0f e6bd 4b29 bfbe eb5c 173e d9ee debc
000000c0: c7b3 2ebe c9d0 19be 1a85 f83d e5a1 5abe
000000d0: 0cb4 9dbe 1ce9 8fbd 7472 0bbe 3537 643e
000000e0: c818 c5be e813 c1bd 2d70 983e 3dfe 89be
000000f0: d563 313b cf6c 3abe 992a 6fbc f271 a8be
00000100: bbec 863e a095 cdbd 4e25 16be d4d0 453e
00000110: 4443 90be 8998 9fb8 78d3 7d3d 0d31 91be
00000120: 4ae1 6d3e 86bf 5a3e 8484 493e 4ffe 903e
00000130: a2fa 82be 7a76 71be 817d 87be 4246 8dbe
00000140: 8051 973e 11b3 503d 1d9e c93d 4e6c 9a3e
00000150: da2d 19be fc60 1a3e 93d5 9cbc e768 cabd
00000160: 3bc7 90be 130a 123e 4a30 4bbe f05e 59be
00000170: bb20 913e 9f95 61be fffa 223e b486 c63d
0.19006214 -0.29145548 -0.3020107 -0.40172604 0.16801119 -0.006941675 0.25695643 -0.06274877
0.15355122 -0.16859944 0.21334854 -0.16234936 -0.3426425 -0.35430473 0.22154994 -0.22971193
-0.13801417 0.30145866 0.294355 -0.1918896 -0.007431646 -0.30085522 -0.35016814 0.10923147
-0.059763588 -0.35860044 0.011213533 0.17248365 -0.03675127 0.2707556 0.23115613 0.15065019
-0.33191004 0.29391795 -0.34974518 0.005145637 0.13958777 -0.32942855 0.3300585 0.13963282
-0.32343817 -0.0290477 0.21832715 -0.30751166 -0.11233481 -0.37336192 0.14781539 -0.0272135
-0.17060767 -0.15021051 0.12134762 -0.2135082 -0.30801427 -0.07026884 -0.13617879 0.22286685
-0.3849547 -0.09427625 0.29773083 -0.2695178 0.0027067561 -0.1820557 -0.014597558 -0.32899433
0.26352486 -0.10038304 -0.14662668 0.19317943 -0.2817632 -7.610123e-05 0.06196925 -0.28357735
0.23230472 0.21362123 0.19679457 0.28319022 -0.25581843 -0.23580351 -0.2646294 -0.27592665
0.29554367 0.05095202 0.09844611 0.30160755 -0.14958897 0.15076059 -0.019144809 -0.0988329
-0.28277 0.14261656 -0.1984264 -0.21227622 0.28345284 -0.22029732 0.1591606 0.09693661

conv_1.conv.0.bias f4 [12]
00000000: 7059 3d3e eb37 98be df60 56bd 0da2 4d3e
00000010: 1bb7 ad3e ff94 023e 0343 67be 076b 87bd
00000020: 03f1 0d3e a514 513e 65d9 f23d b168 7abd
0.18491149 -0.29730162 -0.052338477 0.20081349 0.3392876 0.1275215 -0.22584157 -0.06612211
0.1386147 0.20418032 0.11857871 -0.061134998

conv_1.conv.1.weight f4 [12]
00000000: 441b 733f b20b 733f 8324 7e3f f769 703f
00000010: 9f60 733f e0e8 733f 2b9c 803f f6b3 833f
00000020: a8a7 813f e924 883f 6e68 783f 6c79 843f
0.9496348 0.9493972 0.9927446 0.9391169 0.9506931 0.95277214 1.0047659 1.0289295
1.012929 1.0636264 0.9703435 1.0349555

conv_1.conv.1.bias f4 [12]
00000000: 0102 debc 3311 20bc 4496 b7bd df76 b13d
00000010: 8b54 c3bd 5a8d 81bd e139 523d f2ab abbc
00000020: c300 9cbd f842 50bd 0adf 093d 4da2 e8bd
-0.027100565 -0.009769726 -0.08964208 0.08665251 -0.0953761 -0.06325789 0.05132473 -0.020956013
-0.07617333 -0.050845116 0.033659972 -0.113590814

conv_1.conv.1.running_mean f4 [12]
00000000: 45e9 0cc2 d5b1 23c2 bd23 6cc1 4296 a941
00000010: 4311 1bc1 de17 57c2 92bd 3dc2 ce5c 80c2
00000020: 0124 7dc1 97bd 3640 584f 3842 1a14 9dc1
-35.227802 -40.923664 -14.758725 21.198368 -9.691714 -53.773308 -47.435127 -64.18126
-15.82129 2.8553216 46.077484 -19.634815

conv_1.conv.1.running_var f4 [12]
00000000: 6a1c fc44 be96 3045 d06e 5644 82e0 9f44
00000010: d4a7 8244 f0c3 ff44 e56f a644 cec9 0b45
00000020: d66f 2b44 b44c 0645 2fc9 5744 a8c2 3244
2016.888 2825.4214 857.73145 1279.0159 1045.2446 2046.123 1331.4967 2236.6128
685.74744 2148.794 863.1435 715.0415

conv_2.conv.0.weight f4 [24, 12, 2, 2]
00000000: 341b 9d3d aa23 58bc 7f53 8abd 4cbc 113d
00000010: be1b 163e 4266 a23d 83c9 a0bd 2179 63bd
00000020: 87d0 b83c 7cdf b53a 4bc1 c73d 85d8 1c3e
00000030: 1c80 bd3b 081e 8d3d 1fde 0e3c ea8a 45bc
00000040: d397 4f3d 2806 45bd 8b05 253d 951e 85bb
00000050: 2b95 b8bd 09e0 01bd 62a7 983d 5764 b7bd
00000060: 7bce a63d b63d edbd 7a93 6e3c 1c47 5e3d
00000070: 6b28 10bc 7fa8 ccbd b670 fb3c 4558 5b3d
00000080: 1b5d 80bd d788 083e 4ac4 9d3d 80ae a63d
00000090: 2a0c 223e bf28 763d 5ec5 85bd 1441 b03b
000000a0: 0a39 e0bd 1507 f6bd 21f2 733d df1c 08bd
000000b0: c597 c03c 8dcc 303e b9a2 ed3d f04f c1bc
000000c0: 4d5b bfbb 0855 fbbd 6cd9 ad3b 990d 94bc
000000d0: d24a cfbd 8a7f dfbd 9c8a 623d 72a0 8f3d
000000e0: a01a a9bd 625b d9bd 8bb8 093d 1fca d4bd
000000f0: bd54 fcbd 0267 01be 720a e53c 39cb c0bd
00000100: 30a4 3d3b 3310 5a3d d06d 5cbd a96f 63bd
00000110: d48c 86bd 3d66 cbbd 3bcc 38be ef53 6ebc
00000120: 1bc7 6d3d e9a1 36bd ac8d c6bc 4eb8 553c
00000130: e29c 653d 6d88 ea3d 9c10 d23c 5140 a3bd
00000140: ea34 8dbb 83b3 d0bd 8916 90bd 94ee b23c
00000150: 9009 04be 8263 34be 543e edbd 684c fdbd
00000160: 7adc b63d 12a4 ac3c efb4 9e3d b787 343d
00000170: 3d8d bcbc 19be 15be 079f 14be 6509 793c
00000180: 676e c13d ea8e 823b 4da4 d0bb b26e 193e
00000190: c43a d73b 8301 813d c95c a9bc b58d 06bd
000001a0: d138 323e 1c4a 23bc 0319 60bd 6f19 083d
000001b0: 194b dbbd c418 fe3b 3543 39bd c0f8 9a3b
000001c0: 233c 52bd 1b12 063e 054b 83bd 3a0e d23c
000001d0: 0ed8 e83d 599e 633d daee 89bd 1dca 4e3c
000001e0: 160d 143c 499e 493d 9382 6b3d 448d dc3d
000001f0: 43f9 3fbe 04df 19be b462 b9bd 637e 83bc
00000200: efb5 45bd 9166 c83c e882 9a3b c516 b93d
00000210: a4ce 953d d04b a23d 32b8 e13d a351 0c3d
00000220: 454c 773d 7fd1 8bbd eb90 80bc 8990 0abe
00000230: 9a51 853b 399b d43c 30e1 dc3d 970d 423d
00000240: 6243 41bc 16dc 823d ca1c a7bd 299b 09bd
00000250: 8dde b43d 1470 1f3e 376a 0cbe c166 ebbd
00000260: 17b5 e9bd 81ab debd e5db 82bc b5e0 1a3c
00000270: d3a4 853d fbb9 edbd ee6f 753d 998a 0cbe
00000280: 69fc 92bc d9d0 08be 73ed 9ebd 2f24 98bd
00000290: 8e62 ec3c 72e7 90bd 21c7 d93d a400 16bd
000002a0: 9ab8 71bd 96aa b83d fd12 d23d 618f 7bbc
000002b0: 2abc 1fbd 099b 98bd d614 0fbe 831e 5ebd
000002c0: a1c7 33be b468 e7bd 6f10 663b 88b7 34be
000002d0: 7710 cc3b 6eb9 dfbd fc46 88bd 02c8 5ebd
000002e0: e694 093e 4a5a 91bc d871 08bd cd97 773d
000002f0: e195 dcbd 2d0a e8bd 5489 83bd 3e93 14bd
00000300: b1f0 d2bc 7a5b 1fbd 9a2e b23d 5440 a1bd
00000310: 89ac 1ebd ecfe 9e3d 0a0c e5bd 77df ce3d
00000320: 1a2b 453b 8e87 cc3d 897b 71bd a1c0 7e3d
00000330: c758 143d 2a72 d93d 08ff 8f3d 6775 d1bd
00000340: cd64 d33c 7457 e13d fb8f c8bc f77b 01bc
00000350: f5e8 95bd cf01 dcbd 06f5 7b3d 795d fe3c
00000360: 5bef 2b3c c106 c13d f8f5 e93c 3a5c 9b3d
00000370: 366c 07be a98e 2bbb 432a b63d 918d bc3d
00000380: 3d50 3c3d b02a 623d 8b0f cf3b 3e63 6d3d
00000390: db89 3d3d f3b1 543d eb28 1c3e cf3f 173e
000003a0: 5ae1 1f3d e715 16be 4823 10be 5bb3 debc
000003b0: ba05 e73d 0378 4fba 04d5 af3c 12d9 173e
000003c0: 5f43 64bd 79e1 6a3c e27f fbbc b3fe b9bd
000003d0: 446b 86bd 8ef3 f73d d87e 94bd c8f2 86bd
000003e0: 0bea 04be 211d 0dbe ffe3 96bd 3166 91bd
000003f0: bcd6 38bd 276c 953c c1a4 c5bd 8810 853d
0.07671204 -0.013192097 -0.06754207 0.035579965 0.1465902 0.079296604 -0.07850935 -0.05553544
0.022560371 0.0013875808 0.097536646 0.1531697 0.005783094 0.06890494 0.00871995 -0.0120570455
0.0506819 -0.048101574 0.04028849 -0.0040624836 -0.090128265 -0.031707797 0.07453801 -0.08954685
0.08144852 -0.11584036 0.014561528 0.054267034 -0.008798699 -0.099930756 0.030693393 0.053550977
-0.062677585 0.1333345 0.07703455 0.08138752 0.15824953 0.060097452 -0.065317854 0.0053788517
-0.10948379 -0.120130695 0.059557084 -0.03323066 0.02350987 0.1726553 0.116033025 -0.023597687
-0.0058397413 -0.12272078 0.0053054597 -0.01807289 -0.10121693 -0.10912998 0.05530797 0.070130244
-0.082570314 -0.10613133 0.03362326 -0.10390114 -0.1232085 -0.1263695 0.027959082 -0.09413762
0.0028936975 0.053238105 -0.053815663 -0.05552641 -0.065698296 -0.0993161 -0.18046658 -0.0145463785
0.05805121 -0.044588003 -0.024237476 0.01304443 0.05605782 0.114518024 0.025642686 -0.07971252
-0.0043092864 -0.10190489 -0.07035548 0.021842279 -0.12894273 -0.17616084 -0.11584154 -0.12368089
0.08928771 0.021074329 0.07749354 0.04407474 -0.023016566 -0.14623298 -0.14513789 0.015199994
0.09444886 0.003984322 -0.0063672424 0.14983633 0.0065682847 0.062991165 -0.020674126 -0.032849986
0.17404486 -0.0099663995 -0.054711353 0.03322738 -0.10707683 0.007754417 -0.04523011 0.0047293603
-0.051326882 0.13092844 -0.06410793 0.02564155 0.11369334 0.055570934 -0.067350104 0.01262143
0.009036323 0.049223218 0.057497572 0.10769132 -0.1874743 -0.1502648 -0.09052029 -0.016051477
-0.04826921 0.02446297 0.0047153123 0.09037546 0.07314804 0.07924616 0.110214606 0.034257542
0.06037547 -0.068270676 -0.015694102 -0.13531698 0.0040685656 0.025952922 0.107851386 0.04737624
-0.0117958505 0.06389634 -0.08159788 -0.033595238 0.08831511 0.15570098 -0.13712393 -0.11494208
-0.11411493 -0.108725555 -0.015973995 0.009452988 0.06525578 -0.116077386 0.059921198 -0.13724746
-0.017942624 -0.13360919 -0.077601336 -0.074287765 0.028855588 -0.07075395 0.10633684 -0.036621705
-0.05901394 0.09016912 0.10257528 -0.015354008 -0.038997807 -0.074514456 -0.13972792 -0.054228317
-0.17556621 -0.112992674 0.003510501 -0.17648137 0.0062275487 -0.1092404 -0.06654164 -0.05438996
0.13435706 -0.017743248 -0.033311695 0.060447503 -0.10770775 -0.11330066 -0.06422678 -0.036273234
-0.025749536 -0.0389056 0.08700295 -0.07873598 -0.03873876 0.07763466 -0.11183937 0.10101216
0.0030085505 0.099867925 -0.058955703 0.062195424 0.036217477 0.10617478 0.07031065 -0.10227471
0.025804901 0.110030085 -0.024482718 -0.007903091 -0.07319824 -0.107425325 0.06151297 0.03105043
0.0104940785 0.09425116 0.02855967 0.0758595 -0.13224873 -0.0026177561 0.088947795 0.09206689
0.04597496 0.05521649 0.0063189915 0.057955973 0.046274047 0.051927518 0.15249984 0.14770435
0.03903327 -0.14656793 -0.14075959 -0.027185133 0.11280389 -0.00079143065 0.021463878 0.148289
-0.055728313 0.014335983 -0.030700628 -0.09081783 -0.06563428 0.12107001 -0.07250756 -0.065892756
-0.12979905 -0.13780643 -0.073677056 -0.070995696 -0.04512666 0.018240048 -0.09650565 0.06497294

conv_2.conv.0.bias f4 [24]
00000000: a12c 9a3d ca17 b7bd e9a7 bd3d 4377 063e
00000010: 8226 afbd 1e31 91bd 12c8 0bbe fa2e 5ebd
00000020: 830b d0bd 8b00 f33d 66e2 a1bd 7924 42bd
00000030: d360 e6bd 4638 a33d 491a bf3d a79f b3bd
00000040: 91a5 b1bd d01a 683d 7a25 603d 80a7 923c
00000050: 0570 e5bb a75e ef3c eda8 8c3d a6e0 b3bd
0.075280435 -0.08940084 0.09260542 0.13131432 -0.08552267 -0.070894465 -0.1365054 -0.05424402
-0.10158446 0.11865338 -0.0790451 -0.047398064 -0.112489365 0.07969718 0.09331185 -0.08770686
-0.086741574 0.056666195 0.05472324 0.017902136 -0.007001879 0.029219938 0.068681575 -0.08783083

conv_2.conv.1.weight f4 [24]
00000000: fe38 9e3f bea6 943f ca9e 9d3f 5c46 953f
00000010: 9351 973f ea27 883f b699 983f 6caf 883f
00000020: 9563 953f 335f 8a3f 6b4b 9e3f e644 9e3f
00000030: c3df 873f 7fa2 963f 4f35 9d3f 902d 903f
00000040: 6469 8a3f ca8e a33f c55e 983f aa36 923f
00000050: ea70 a03f 5dd8 9a3f ccf5 963f 656b a33f
1.2361143 1.1613386 1.2314084 1.1662097 1.182177 1.0637181 1.1921909 1.0678535
1.1671015 1.0810302 1.2366766 1.2364776 1.0615162 1.176834 1.2281893 1.1263905
1.0813413 1.2777951 1.1903921 1.1422932 1.2534459 1.2097279 1.1793761 1.2767149

conv_2.conv.1.bias f4 [24]
00000000: bbd4 253e 427e f83c c2a1 223e bf91 e23c
00000010: 2863 133e cfe6 863c a08c 1f3e 5bf9 acbc
00000020: c2f9 063e e295 a43c 8b43 2b3e f4fd 2e3e
00000030: 9526 2c3b 2f78 103e 7877 213e c993 a93c
00000040: 4276 9bbc 6761 103e 8bc7 1c3e 38f7 a73d
00000050: ad5c 223e 5a16 1b3e 5ead 193d 70ea 123e
0.16194431 0.030333642 0.15882018 0.027657388 0.14393294 0.01646748 0.15580988 -0.021114996
0.13181213 0.020091001 0.16724984 0.17089063 0.0026268114 0.14108346 0.1576823 0.020700352
-0.018977288 0.14099656 0.15310495 0.0820145 0.15855666 0.15145245 0.03751885 0.14347243

conv_2.conv.1.running_mean f4 [24]
00000000: 99e8 0d3f 13f2 aabf ad37 f13e b15b 81bf
00000010: 0bf5 0c3f e3d9 24bf 18bc bf3e 7a3d 2abf
00000020: 7a31 bd3e 8b3e 47bf f1ed 8e3f bc40 273f
00000030: 2df5 9ebf 1f69 ce3e e949 0d3f 4848 bfbf
00000040: 3ff0 6cbf 7f3e 9f3e e6bd 1e3f bbda 6a3f
00000050: a0d9 0a3f a0dd 123f d692 2cbf 39cb 743e
0.5543304 -1.3355125 0.4711279 -1.0106107 0.55061406 -0.6439497 0.37448192 -0.66500056
0.3695181 -0.7782981 1.1166364 0.6533315 -1.2418572 0.40314576 0.551909 -1.4943933
-0.92554086 0.31102368 0.6200851 0.91740006 0.5423832 0.5736942 -0.67411554 0.23905648

conv_2.conv.1.running_var f4 [24]
00000000: fde7 973d e0fb 0d3e 616b 8f3d 4f65 e23d
00000010: 6578 aa3d eafc 9a3d aa26 723d 9a74 483d
00000020: d04e 4b3d f86b f83d a91f 053e 1c98 c63d
00000030: 87a9 173e c130 8e3d f1ae 5b3d 3585 0e3e
00000040: ad35 e13d df86 833e 28af ad3d 5911 fa3d
00000050: 0ca4 2f3e 4222 ab3d 5644 bc3d d0a7 1c3e
0.07417295 0.13865614 0.07002903 0.11054479 0.08323745 0.07567771 0.059118904 0.048939325
0.04963571 0.121299684 0.13000359 0.09696981 0.14810763 0.06942893 0.053633634 0.13918002
0.10996566 0.25688836 0.08480674 0.1221034 0.17152423 0.083561435 0.091927215 0.1529839

flaten.conv.0.weight f4 [1, 24, 1, 1]
00000000: f833 31be 12d2 753e 3023 7bbe 91e1 453e
00000010: 40cf 76be 4abf d33d 9744 65be bbcd 7e3e
00000020: 9c1d a6be f1aa 883e edeb 2fbe 4f65 1ebe
00000030: 7bd6 323e c808 8cbe 0a00 93be f35d 3b3e
00000040: 5ca9 fb3d 4d16 42be 4e54 84be 0f6e 9cbe
00000050: d94f 43be 288e 52be a835 403e 5e22 48be
-0.17304981 0.24005917 -0.24525142 0.19324328 -0.24102497 0.1033922 -0.22389446 0.24883167
-0.32444465 0.26692918 -0.17179842 -0.15468334 0.1746463 -0.2735045 -0.28710967 0.18297558
0.12288162 -0.1895382 -0.2584557 -0.30552718 -0.19073428 -0.20562041 0.18770468 -0.1954436
