image_change_detection/change_detector/SAR_model/model/checkpoints/checkpoints_DCP1_val_0.203971.pth (torch, 12190 bytes, 13 tensors)

conv_1.conv.0.weight f4 [12, 2, 2, 2]
0.21612561 -0.2836744 -0.2847811 -0.38660666 0.1513391 -0.04361189 0.26455134 -0.09925202
0.14569712 -0.18175721 0.23992042 -0.13428937 -0.33109728 -0.32569215 0.24983054 -0.22551335
-0.1647068 0.3252158 0.29223958 -0.1832512 -0.009072617 -0.26330653 -0.34069443 0.11822766
-0.033414047 -0.3221853 0.06892955 0.23064503 -0.046213925 0.24219908 0.26702383 0.16748229
-0.32762945 0.30234954 -0.32766238 0.043416277 0.1392606 -0.33976397 0.33566865 0.13784574
-0.31268412 -0.035578664 0.25140664 -0.2774352 -0.10890825 -0.36105916 0.17429824 -0.018956868
-0.20449121 -0.12895694 0.12556377 -0.17655483 -0.2967041 -0.06155947 -0.13130851 0.24080923
-0.3583256 -0.09208003 0.30538392 -0.28957224 0.011929714 -0.18821289 -0.009387459 -0.33531037
0.2833731 -0.11359123 -0.14434232 0.18356062 -0.2618924 -0.004884808 0.08752494 -0.26578432
0.24208504 0.21133673 0.16818593 0.26523298 -0.26389536 -0.2364897 -0.27023077 -0.29741344
0.29432744 0.04326738 0.09445823 0.30519855 -0.1428329 0.16586164 -0.0036384563 -0.08099426
-0.25168526 0.1547734 -0.16560267 -0.19289829 0.3057368 -0.25744322 0.15601672 0.07386509
00000000: 0850 5d3e c53d 91be d4ce 91be 4ff1 c5be
00000010: a3f8 1a3e 62a2 32bd 4673 873e a544 cbbd
00000020: a031 153e 901e 3abe b3ad 753e 2783 09be
00000030: 9585 a9be 1fc1 a6be 94d3 7f3e f9ec 66be
00000040: e6a8 28be af82 a63e 6da0 953e 34a6 3bbe
00000050: 50a5 14bc 1dd0 86be 806f aebe 5821 f23d
00000060: 2bdd 08bd 79f5 a4be f02a 8d3d 362e 6c3e
00000070: d04a 3dbd 0903 783e 59b7 883e 7a80 2b3e
00000080: 0cbf a7be 8fcd 9a3e 5dc3 a7be 44d5 313d
00000090: 559a 0e3e 8bf5 adbe c3dc ab3e 6f27 0d3e
000000a0: 2218 a0be efba 11bd 5fb8 803e fd0b 8ebe
000000b0: 4a0b dfbd bfdc b8be 3d7b 323e 6f4b 9bbc
000000c0: 2566 51be 4a0d 04be ca93 003e caca 34be
000000d0: 9ae9 97be c825 7cbd bd75 06be b296 763e
000000e0: 7476 b7be 7494 bcbd 485b 9c3e d042 94be
000000f0: d974 433c e1ba 40be dbcd 19bc cdad abbe
00000100: 4716 913e 85a2 e8bd 79ce 13be 51f7 3b3e
00000110: c316 86be bd10 a0bb 4740 b33d e214 88be
00000120: 24e5 773e a868 583e ef38 2c3e 9ecc 873e
00000130: 4b1d 87be 5b2a 72be b05b 8abe 9346 98be
00000140: 16b2 963e 2339 313d 5173 c13d fc42 9c3e
00000150: ca42 12be a2d7 293e 2b73 6ebb 52e0 a5bd
00000160: e4dc 80be eb7c 1e3e bf93 29be 2187 45be
00000170: 8989 9c3e 99cf 83be d9c2 1f3e 9546 973d

conv_1.conv.0.bias f4 [12]
0.1848773 -0.2973135 -0.05235456 0.20083499 0.33925855 0.12751764 -0.22586551 -0.06612598
0.13865061 0.20416106 0.118533485 -0.061328366
00000000: 7a50 3d3e 7a39 98be bc71 56bd b0a7 4d3e
00000010: 4cb3 ad3e fc93 023e 4a49 67be 0f6d 87bd
00000020: 6dfa 0d3e 990f 513e afc1 f23d 7433 7bbd

conv_1.conv.1.weight f4 [12]
0.9699987 0.9632854 0.99567366 0.95055145 0.9587204 0.95673025 1.0029944 1.020246
1.0242962 1.0525471 0.98450184 1.0217102
00000000: d651 783f df99 763f 78e4 7e3f 5757 733f
00000010: b36e 753f 46ec 743f 1f62 803f 6c97 823f
00000020: 231c 833f ddb9 863f 5008 7c3f 66c7 823f

conv_1.conv.1.bias f4 [12]
0.0041870647 -0.011979066 -0.07158661 0.03758756 -0.06509464 -0.051385537 0.03172556 0.0007741689
-0.060639393 -0.04572803 0.037830375 -0.06079289
00000000: a533 893b d843 44bc 009c 92bd 6af5 193d
00000010: 5750 85bd a479 52bd a9f2 013d 98f1 4a3a
00000020: 0361 78bd 514d 3bbd 06f4 1a3d f701 79bd

conv_1.conv.1.running_mean f4 [12]
-35.804012 -34.60731 -11.353845 35.473274 -4.7212286 -46.211697 -43.25636 -63.6181
-12.385676 -2.3930814 49.20549 -15.333691
00000000: 4f37 0fc2 e36d 0ac2 59a9 35c1 a2e4 0d42
00000010: 4e14 97c0 c7d8 38c2 8306 2dc2 ef78 7ec2
00000020: bb2b 46c1 3f28 19c0 6cd2 4442 cc56 75c1

conv_1.conv.1.running_var f4 [12]
2106.0344 2673.2485 781.7491 1597.2511 1086.6748 1933.9534 1291.5094 2259.039
585.97784 2239.6865 915.56213 691.9832
00000000: 8da0 0345 fa13 2745 f16f 4344 09a8 c744
00000010: 98d5 8744 82be f144 4d70 a144 a030 0d45
00000020: 957e 1244 fcfa 0b45 fae3 6444 edfe 2c44

conv_2.conv.0.weight f4 [24, 12, 2, 2]
0.09714454 -0.013735041 -0.06800387 0.01691461 0.14087929 0.08397627 -0.070956185 -0.06723493
0.02610619 -0.009770153 0.09819474 0.14712116 0.025660338 0.049656324 0.013863531 -0.020147927
0.025855217 -0.044063065 0.0068648765 -0.01364786 -0.09723214 -0.030806728 0.03740044 -0.0938953
0.08966266 -0.11575065 0.00072231534 0.06350827 0.003603849 -0.09073876 0.010931842 0.05393754
-0.071905404 0.14517374 0.08456867 0.080334604 0.1412049 0.042174898 -0.06938233 -0.019298729
-0.108891845 -0.12730567 0.07496947 -0.035101146 0.02127199 0.18304612 0.09871281 -0.027429625
0.021172209 -0.10324487 0.004100667 -0.0446201 -0.12236658 -0.115652256 0.049699537 0.0764984
-0.096972145 -0.09979203 0.052170295 -0.10816175 -0.15617263 -0.12025658 0.011682847 -0.09825684
0.01714055 0.07187921 -0.04972257 -0.036242593 -0.07688753 -0.11755414 -0.1553686 -0.012679939
0.05654522 -0.05564282 0.027911156 0.032638524 0.05438637 0.10362499 0.034338962 -0.08498879
0.015059476 -0.10177386 -0.052748576 0.03606582 -0.13880785 -0.16911158 -0.11867912 -0.13749635
0.046065595 -0.01932635 0.03295666 -0.010324924 0.02085037 -0.12474557 -0.13967687 0.03787411
0.1250731 -0.0054061413 -0.036580168 0.1433944 -0.009444858 0.05189089 -0.0124333445 -0.03031192
0.17384128 -0.003515132 -0.05830752 0.028614216 -0.09250142 0.007974239 -0.060093697 -0.019761872
-0.04835741 0.14622459 -0.0690079 0.014065902 0.113600634 0.046555173 -0.05430098 0.019740535
0.02498134 0.031254053 0.048477963 0.11172558 -0.16972427 -0.15377493 -0.07266706 -0.012724936
-0.04654179 0.028810503 0.008100062 0.0899418 0.06248708 0.063899755 0.11082961 0.017931093
0.09049485 -0.05962827 -0.0031459164 -0.13931343 0.011453637 0.02670558 0.107905656 0.04497554
0.013207373 0.09346506 -0.08987395 -0.0138591565 0.070811674 0.1459897 -0.16625972 -0.11865939
-0.102548346 -0.115898855 0.00036990442 0.044557087 0.0707603 -0.105282106 0.042225745 -0.12840573
0.011418955 -0.1383242 -0.08869528 -0.076813966 0.020562366 -0.07847134 0.09670581 -0.047616426
-0.044522963 0.09798215 0.12401559 -0.013436527 -0.039219864 -0.08220095 -0.1372375 -0.052631665
-0.19014616 -0.13833103 0.03427112 -0.16739118 0.038766723 -0.09612225 -0.042761017 -0.016283337
0.12714112 -0.053201746 -0.058682986 0.065761216 -0.08058337 -0.09413932 -0.056814507 -0.010566074
-0.028067157 -0.053532068 0.076765664 -0.10160547 -0.043646798 0.07809013 -0.10412656 0.09309827
0.012106965 0.10793786 -0.07864842 0.048125137 0.03984035 0.10345078 0.07347029 -0.107031815
0.015815318 0.12228943 -0.031141218 -0.0023084187 -0.06842943 -0.1048303 0.05042135 0.019737862
0.034398526 0.10137169 0.045932267 0.07703406 -0.117590785 -0.005254841 0.08045731 0.077435605
0.047745902 0.06266396 -0.0037037756 0.052634202 0.035541493 0.047316898 0.13890198 0.1333795
0.046326067 -0.14732744 -0.15035623 -0.026411233 0.10850063 -0.010134829 0.021521535 0.14346516
-0.0012493373 0.016968789 -0.02740824 -0.08268341 -0.09757589 0.10046005 -0.08441129 -0.090567544
-0.1223961 -0.11626487 -0.05519486 -0.034849066 -0.0033800306 0.036427833 -0.08230593 0.0784302
00000000: b7f3 c63d f008 61bc 9d45 8bbd 8290 8a3c
00000010: a942 103e c0fb ab3d 7a51 91bd 78b2 89bd
00000020: a6dc d53c fe12 20bc 531a c93d eea6 163e
00000030: a135 d23c 6e64 4b3d dd23 633c 440d a5bc
00000040: 52ce d33c 797b 34bd c2f2 e03b 469b 5fbc
00000050: a521 c7bd 645e fcbc 3431 193d 2e4c c0bd
00000060: 0fa1 b73d ad0e edbd c359 3d3a a010 823d
00000070: 8e2e 6c3b 3ed5 b9bd 781b 333c 9ced 5c3d
00000080: 2443 93bd 6da8 143e 5732 ad3d 7886 a43d
00000090: 0498 103e 96bf 2c3d 5318 8ebd 5e18 9ebc
000000a0: b002 dfbd 6b5c 02be 9889 993d 38c6 0fbd
000000b0: 9942 ae3c 7170 3b3e f129 ca3d 18b4 e0bc
000000c0: 5771 ad3c 0c72 d3bd e35e 863b 91c3 36bd
000000d0: 549b fabd 17db ecbd be91 4b3d 31ab 9c3d
000000e0: 5599 c6bd c45f ccbd 85b0 553d e883 ddbd
000000f0: b8eb 1fbe 1549 f6bd 6969 3f3c e23a c9bd
00000100: 576a 8c3c 6835 933d e5a9 4bbd 1d73 14bd
00000110: 3677 9dbd 3ac0 f0bd f218 1fbe 85bf 4fbc
00000120: f69b 673d bae9 63bd f0a5 e43c f9af 053d
00000130: 3ec4 5e3d 5739 d43d 03a7 0c3d 9a0e aebd
00000140: 05bc 763c d06e d0bd e40e 58bd c1b9 133d
00000150: a523 0ebe 962b 2dbe 0a0e f3bd d8cb 0cbe
00000160: 47af 3c3d 4b52 9ebc 90fd 063d df29 29bc
00000170: 65ce aa3c 9b7a ffbd 7407 0fbe e221 1b3d
00000180: 2a13 003e 0026 b1bb 16d5 15bd fbd5 123e
00000190: 9bbe 1abc 8b8b 543d 3ab5 4bbc b450 f8bc
000001a0: 7303 323e 215e 66bb ded3 6ebd 5c68 ea3c
000001b0: 6271 bdbd 62a6 023c cf24 76bd a6e3 a1bc
000001c0: 6b12 46bd e6bb 153e 0454 8dbd ab74 663c
000001d0: 73a7 e83d a3b0 3e3d b46a 5ebd e7b6 a13c
000001e0: aba5 cc3c 4004 003d d490 463d 62d0 e43d
000001f0: 33cc 2dbe 2d77 1dbe 78d2 94bd 407c 50bc
00000200: 9ba2 3ebd 0104 ec3c 1fb6 043c 6833 b83d
00000210: 74f2 7f3d e0dd 823d a2fa e23d 3ae4 923c
00000220: 5d55 b93d c63c 74bd b82b 4ebb 2ea8 0ebe
00000230: 09a8 3b3c a9c5 da3c a4fd dc3d 4638 383d
00000240: bd63 583c 9c6a bf3d d50f b8bd 8411 63bc
00000250: b605 913d 537e 153e fd3f 2abe b203 f3bd
00000260: de04 d2bd 615c edbd bbef c139 7e81 363d
00000270: c7ea 903d 259e d7bd e7f4 2c3d cb7c 03be
00000280: 9216 3b3c dca4 0dbe dfa5 b5bd a450 9dbd
00000290: 6872 a83c 95b5 a0bd b20d c63d 7109 43bd
000002a0: b65d 36bd deaa c83d e3fb fd3d e124 5cbc
000002b0: 02a5 20bd f958 a8bd fd87 0cbe 4d94 57bd
000002c0: adb5 42be a6a6 0dbe e05f 0c3d 9868 2bbe
000002d0: dbc9 1e3d bedb c4bd 2d26 2fbd a264 85bc
000002e0: 4831 023e 13ea 59bd 925d 70bd d1ad 863d
000002f0: e508 a5bd 1ecc c0bd 54b6 68bd 541d 2dbc
00000300: 18ed e5bc 7144 5bbd 5137 9d3d 8716 d0bd
00000310: fcc6 32bd b8ed 9f3d 4e40 d5bd 4eaa be3d
00000320: 4b5c 463c 860e dd3d 6c12 a1bd dd1e 453d
00000330: a32f 233d 01de d33d 9777 963d 7f33 dbbd
00000340: 208f 813c e172 fa3d de1b ffbc d748 17bb
00000350: bb24 8cbd 45b1 d6bd 9e86 4e3d 4cb1 a13c
00000360: 78e5 0c3d f69b cf3d 7923 3c3d 09c4 9d3d
00000370: 70d3 f0bd cd30 acbb cdc6 a43d 8f96 9e3d
00000380: 3591 433d f655 803d 0bbb 72bb f696 573d
00000390: f593 113d 5dcf 413d 523c 0e3e a394 083e
000003a0: 67c0 3d3d 01dd 16be fcf6 19be 5f5c d8bc
000003b0: 9435 de3d 8e0c 26bc ee4d b03c 88e8 123e
000003c0: cec0 a3ba 2102 8b3c 3f87 e0bc eb55 a9bd
000003d0: ded5 c7bd 00be cd3d d4df acbd 7a7b b9bd
000003e0: ceaa fabd 471c eebd 0114 62bd e5bd 0ebd
000003f0: 8183 5dbb 5a35 153d 0390 a8bd 03a0 a03d

conv_2.conv.0.bias f4 [24]
0.07444199 -0.08947051 0.09365701 0.13124204 -0.0866536 -0.07065913 -0.13564776 -0.056114655
-0.10464833 0.117773764 -0.07892285 -0.04744871 -0.11147049 0.080634214 0.095000654 -0.088390335
-0.08666644 0.056775518 0.05559335 0.018355384 -0.0070034442 0.027720017 0.07072425 -0.08786212
00000000: 0b75 983d 513c b7bd 3fcf bf3d 5064 063e
00000010: 7177 b1bd bcb5 90bd 3fe7 0abe 7bd8 65bd
00000020: dd51 d6bd 5f33 f13d 4ea2 a1bd 9459 42bd
00000030: a44a e4bd 8d23 a53d b48f c23d fe05 b5bd
00000040: 2d7e b1bd 728d 683d dab5 633d 085e 963c
00000050: 267d e5bb 1715 e33c e0d7 903d 0ef1 b3bd

conv_2.conv.1.weight f4 [24]
1.1240952 1.0734681 1.1205773 1.0668373 1.0964196 0.97962946 1.0992962 0.99738896
1.0879894 1.0115604 1.1161671 1.1270214 0.99680674 1.095814 1.1255654 1.0381287
1.0001827 1.1384257 1.0928733 1.0631162 1.1208786 1.1095536 1.0770591 1.1321197
00000000: 5ae2 8f3f 6767 893f 146f 8f3f 208e 883f
00000010: 7a57 8c3f ffc8 7a3f bdb5 8c3f e254 7f3f
00000020: 3d43 8b3f d07a 813f 90de 8e3f 3d42 903f
00000030: ba2e 7f3f a243 8c3f 8712 903f 67e1 843f
00000040: fd05 803f efb7 913f 46e3 8b3f 3114 883f
00000050: f378 8f3f da05 8e3f 13dd 893f 4ce9 903f

conv_2.conv.1.bias f4 [24]
0.08759842 0.0146868015 0.087500446 0.007899447 0.08051392 -0.0010341633 0.079753816 -0.03226107
0.07173495 0.0022825666 0.09072436 0.094967924 -0.010789293 0.08234888 0.083853364 0.0010004283
-0.032875117 0.072520755 0.0757202 0.036158238 0.08765811 0.082196325 0.014861038 0.063759156
00000000: cd66 b33d e9a0 703c 6f33 b33d af6c 013c
00000010: 7be4 a43d c38c 87ba f855 a33d 2f24 04bd
00000020: c6e9 923d 1d97 153b b1cd b93d 8b7e c23d
00000030: 93c5 30bc 88a6 a83d 50bb ab3d ce20 833a
00000040: 0fa8 06bd c385 943d 3113 9b3d a91a 143d
00000050: 1886 b33d 8c56 a83d b67b 733c 2994 823d

conv_2.conv.1.running_mean f4 [24]
0.4789845 -1.5301144 0.4999179 -0.9502887 0.47767174 -0.4520621 0.22313239 -0.27647975
0.4109109 -0.6167231 1.0978086 0.62346536 -1.020442 0.4294959 0.5607589 -1.2513306
-0.16810693 0.32377306 0.6429971 0.77476674 0.5431772 0.47694972 -0.45495602 0.23257732
00000000: 753d f53e cada c3bf 3df5 ff3e 1f46 73bf
00000010: 6491 f43e af74 e7be d17c 643e c18e 8dbe
00000020: ea62 d23e 91e1 1dbf fe84 8c3f 6d9b 1f3f
00000030: d89d 82bf e3e6 db3e e58d 0f3f 9a2b a0bf
00000040: 3924 2cbe 95c5 a53e 759b 243f 1d57 463f
00000050: a90d 0b3f c132 f43e ffef e8be c028 6e3e

conv_2.conv.1.running_var f4 [24]
0.062709056 0.23940212 0.06418968 0.115304686 0.07410045 0.11860653 0.065392695 0.059538607
0.03988133 0.19142267 0.12484254 0.09118382 0.15073706 0.05766134 0.048235744 0.15517783
0.12513912 0.40966713 0.08232582 0.17312817 0.36929664 0.074022524 0.08161908 0.21271074
00000000: 9b6d 803d d425 753e e175 833d dd24 ec3d
00000010: fac1 973d fbe7 f23d 9bec 853d c1de 733d
00000020: 9b5a 233d 4e04 443e 72ad ff3d 95be ba3d
00000030: d15a 1a3e 4c2e 6c3d d892 453d f0e6 1e3e
00000040: 7824 003e e4bf d13e 719a a83d 8348 313e
00000050: 7314 bd3e 1f99 973d e727 a73d d8d0 593e

flaten.conv.0.weight f4 [1, 24, 1, 1]
-0.09825653 0.16585924 -0.16044869 0.114595324 -0.17451636 0.036414955 -0.15196417 0.18382186
-0.25602403 0.20379925 -0.0955077 -0.086768605 0.117640845 -0.20754859 -0.20255396 0.11253534
0.05898236 -0.10080106 -0.1801577 -0.23602448 -0.10484339 -0.13299045 0.10977409 -0.099833526
00000000: b83a c9bd 01d7 293e a94c 24be f4b0 ea3d
00000010: 6bb4 32be d927 153d 7f9c 1bbe cc3b 3c3e
00000020: 9515 83be c0b0 503e 8b99 c3bd bdb3 b1bd
00000030: afed f03d 9e87 54be 4e6a 4fbe ee78 e63d
00000040: 7d97 713d c970 cebd 437b 38be 67b0 71be
00000050: 22b8 d6bd a62e 08be 3dd1 e03d 8575 ccbd
