image_change_detection/change_detector/SAR_model/model/checkpoints/checkpoints_DCP2_val_0.144226.pth (torch, 12190 bytes, 13 tensors)

conv_1.conv.0.weight f4 [12, 2, 2, 2]
000000 03 6e 53 3e 85 bc 91 be 4f 22 96 be 58 38 c9 be
       0.20647435 -0.2846414 -0.2932305 -0.393008
000010 4f 7e 25 3e b6 f9 ce bc f5 3e 86 3e a2 90 a6 bd
       0.16161464 -0.025265556 0.26219907 -0.08133055
000020 47 7b 1b 3e 4b 7a 33 be 0f 8e 6a 3e ba 18 15 be
       0.15183745 -0.1752712 0.22905754 -0.14560214
000030 3f d3 ab be dc 10 ad be 0d 62 71 3e a0 f5 6b be
       -0.33559605 -0.33801925 0.2357256 -0.23042917
000040 46 13 1e be b1 68 a1 3e c6 cb 96 3e d1 6b 3d be
       -0.1543704 0.31525186 0.29452342 -0.1849816
000050 5c c8 53 bc 67 e5 8e be 6c 47 b0 be f5 b9 e8 3d
       -0.012926187 -0.27909395 -0.3442949 0.113635935
000060 8b 1f 54 bd 17 6b b0 be f5 82 20 3d 41 57 4e 3e
       -0.051787894 -0.34456703 0.03918739 0.20150472
000070 d2 df 35 bd 23 92 81 3e 29 07 81 3e f9 5d 23 3e
       -0.044402905 0.25306806 0.25200775 0.15953816
000080 de 62 a9 be 98 9d 98 3e 4c 02 ae be 2b 88 d5 3c
       -0.33083242 0.29807734 -0.33986127 0.026065907
000090 b4 44 10 3e d5 15 aa be 8b 32 aa 3e be 30 0f 3e
       0.14088708 -0.33219782 0.33241686 0.13983437
0000a0 66 1e a4 be e7 16 1b bd 4e b7 6f 3e 1a ff 94 be
       -0.32054442 -0.03786364 0.23409769 -0.29100877
0000b0 11 06 e5 bd b6 58 bc be 4c ef 23 3e 65 cc bf bc
       -0.11182798 -0.3678643 0.16009253 -0.023412893
0000c0 c2 03 44 be e8 23 0d be 60 38 00 3e 2f 32 44 be
       -0.19142058 -0.13783228 0.12521505 -0.19159769
0000d0 f3 42 9a be 9f 73 86 bd 5a 1b 08 be 35 5d 6f 3e
       -0.30129203 -0.06565022 -0.13291684 0.233754
0000e0 7d 16 bd be 15 43 bd bd 3f c9 9b 3e 7b 81 8f be
       -0.3693122 -0.092413105 0.30426976 -0.28028473
0000f0 ce 95 0d 3c 94 f2 40 be f7 f9 14 bc 47 92 a9 be
       0.008641673 -0.18842536 -0.009092799 -0.33119413
000100 44 78 8d 3e 79 7b d6 bd c1 6b 11 be 0a ba 43 3e
       0.27630818 -0.10472769 -0.14201261 0.19113937
000110 54 7f 8a be 36 8a da bb 93 9d 99 3d cf a0 8b be
       -0.2705027 -0.006669308 0.07500758 -0.27271125
000120 be b1 72 3e 9e 43 59 3e 5e 33 38 3e 3a d0 8b 3e
       0.23700616 0.212172 0.17988345 0.27307302
000130 46 e4 85 be 39 2c 73 be 87 34 89 be 5e 51 93 be
       -0.2615072 -0.23747338 -0.26797888 -0.28773016
000140 ce 3f 96 3e e0 59 48 3d 72 d0 c3 3d 05 84 9e 3e
       0.29345554 0.048913836 0.09561242 0.30960098
000150 0b b0 15 be cf 51 20 3e ba 02 32 bc a1 ff b7 bd
       -0.14617936 0.15656208 -0.010864908 -0.08984304
000160 55 ba 88 be aa e6 19 3e 2c cb 3a be 5c 22 4e be
       -0.2670466 0.15029398 -0.18241566 -0.20130295
000170 6a bd 97 3e 95 fd 74 be 39 af 20 3e f1 59 af 3d
       0.296367 -0.23924859 0.15691842 0.08562077

conv_1.conv.0.bias f4 [12]
000000 44 51 3d 3e 72 39 98 be 51 75 56 bd 02 a9 4d 3e
       0.18488032 -0.29731327 -0.052357975 0.20084003
000010 cb b4 ad 3e 7f 95 02 3e 48 3e 67 be 49 6a 87 bd
       0.33926997 0.1275234 -0.22582352 -0.06612069
000020 d5 ff 0d 3e 13 12 51 3e 2a bb f2 3d 7f 0b 7b bd
       0.13867123 0.20417051 0.11852105 -0.06129026

conv_1.conv.1.weight f4 [12]
000000 05 06 76 3f 5b cf 74 3f 6f 88 7e 3f 9c 32 71 3f
       0.96102935 0.956289 0.9942693 0.9421785
000010 eb 95 74 3f 9b 3a 74 3f 38 ef 7f 3f 1e a8 82 3f
       0.95541257 0.95401925 0.99974394 1.0207555
000020 69 73 82 3f 38 8e 87 3f a8 f0 79 3f 36 f5 83 3f
       1.019147 1.0590277 0.9763284 1.0309207

conv_1.conv.1.bias f4 [12]
000000 e5 88 14 bc e2 a1 52 bc 28 ee ac bd 65 5b 6c 3d
       -0.009065841 -0.012855979 -0.08443862 0.057704348
000010 bd 1d a5 bd e6 20 57 bd 94 9b 1a 3d 31 fc 23 bc
       -0.08062313 -0.05252161 0.037746027 -0.010008858
000020 71 2b 94 bd 98 a0 49 bd d5 c9 03 3d cb cb aa bd
       -0.07234848 -0.04922542 0.032174904 -0.08339652

conv_1.conv.1.running_mean f4 [12]
000000 91 99 0b c2 ba a4 19 c2 44 eb 59 c1 77 2e e3 41
       -34.899967 -38.410866 -13.619938 28.397688
000010 12 37 db c0 e1 4d 4e c2 8c c3 36 c2 b9 5e 81 c2
       -6.8504725 -51.576054 -45.690964 -64.685005
000020 95 3a 60 c1 e9 54 c5 bf e6 93 41 42 c0 11 89 c1
       -14.014302 -1.5416538 48.394432 -17.133667

conv_1.conv.1.running_var f4 [12]
000000 2d 95 03 45 ab 7b 31 45 99 ea 53 44 f0 d9 b8 44
       2105.3235 2839.7292 847.6656 1478.8105
000010 e5 98 87 44 b2 e7 01 45 cb af a8 44 38 1c 11 45
       1084.778 2078.481 1349.4935 2321.7637
000020 51 cd 22 44 a2 ca 0e 45 3a 43 63 44 09 b6 32 44
       651.20807 2284.6646 909.0504 714.8443

conv_2.conv.0.weight f4 [24, 12, 2, 2]
000000 66 c3 bc 3d a5 8a 34 bc fa 55 87 bd 1a f7 e6 3c
       0.09216957 -0.011019384 -0.066081956 0.028194
000010 3d 94 13 3e 88 81 ac 3d 3f 25 98 bd 87 70 77 bd
       0.14412017 0.084231436 -0.07428979 -0.06041005
000020 da f7 cf 3c 99 81 8b bb 40 9f c6 3d a3 c6 17 3e
       0.02538674 -0.0042573926 0.09698343 0.14821868
000030 e8 2d 92 3c d8 8f 60 3d 4e a2 30 3c 4b ff 81 bc
       0.017844155 0.05482468 0.010780884 -0.015868803
000040 03 e3 16 3d a0 14 34 bd 42 70 b6 3c 6b 38 c4 bb
       0.03683759 -0.043964982 0.022270326 -0.005988171
000050 d8 30 c3 bd ce 83 f0 bc 61 6a 59 3d 93 b2 b5 bd
       -0.095308006 -0.029359724 0.053079966 -0.08871951
000060 ab d4 ad 3d d7 43 ea bd 4b c2 56 3b b5 84 74 3d
       0.08487829 -0.11438721 0.0032769616 0.05969687
000070 30 96 22 bb 8d 38 be bd 9d 16 a3 3c 4f a2 68 3d
       -0.0024808757 -0.0928813 0.019908244 0.056795415
000080 8d 4f 89 bd 51 e1 10 3e 01 90 a8 3d a6 58 a3 3d
       -0.06704626 0.14148451 0.082305916 0.07975893
000090 c5 0d 19 3e 9c 46 52 3d af 12 88 bd f4 ca 17 bc
       0.14946659 0.05133687 -0.066441886 -0.009264696
0000a0 fa 32 e3 bd 13 93 02 be c6 63 85 3d ab d7 1b bd
       -0.110937074 -0.12751417 0.06513171 -0.038047474
0000b0 b2 51 bb 3c 78 58 3a 3e 6d 58 da 3d 70 bb af bc
       0.022866104 0.1819781 0.10661397 -0.021451682
0000c0 17 82 57 3b ea c5 e1 bd 59 74 68 3b f5 ce cc bc
       0.0032883936 -0.11024077 0.003546974 -0.025001029
0000d0 88 1d e8 bd a6 5e e0 bd 89 82 4d 3d 44 e6 9d 3d
       -0.11333758 -0.10955553 0.050173316 0.07709935
0000e0 98 9e b5 bd 4e da d4 bd 55 99 3a 3d 41 1b de bd
       -0.0886814 -0.10393201 0.045556385 -0.10845042
0000f0 d1 51 11 be 57 17 fb bd 6b 33 95 3c 4f c3 c5 bd
       -0.14191367 -0.12260311 0.018212995 -0.09656393
000100 d7 b6 0b 3c fc 17 71 3d 49 a7 4e bd f8 0b 44 bd
       0.008527479 0.058860764 -0.050452504 -0.047862977
000110 ef 20 92 bd 53 7b dd bd a6 bf 2d be 0c bf 2a bc
       -0.07135188 -0.10814538 -0.1696764 -0.010421526
000120 c5 6a 6e 3d 25 55 4d bd b7 cc f8 3a b7 ea c5 3c
       0.058207292 -0.05013003 0.0018981908 0.024159772
000130 19 b2 61 3d af ea e2 3d 12 7b e5 3c 92 78 a5 bd
       0.055101488 0.110799186 0.028012786 -0.080796376
000140 1c 20 ed 3b 69 76 d2 bd a2 7a 76 bd 81 6e f4 3c
       0.0072364938 -0.10276491 -0.060175546 0.029837849
000150 8a 02 0a be 15 c3 35 be a1 94 f2 bd c8 92 0b be
       -0.13477531 -0.17750199 -0.11844755 -0.13630211
000160 cd e2 91 3d a6 78 73 3b e0 a3 73 3d 64 6e 98 3c
       0.07123337 0.003715077 0.059482455 0.018607326
000170 d1 15 fd 39 26 0b 0f be 1f 72 0f be 7c 86 d3 3c
       0.00048272175 -0.13969097 -0.14008377 0.025820963
000180 e4 7e ec 3d 68 31 9e b9 ce f4 b3 bc 66 88 15 3e
       0.1154764 -0.0003017292 -0.021967318 0.14602813
000190 6a 87 80 bb 04 cc 66 3d 56 d5 6a bc b6 25 03 bd
       -0.0039223926 0.05634691 -0.01433309 -0.032018386
0001a0 43 ac 31 3e 39 5b ac bb cc ac 65 bd b9 1b ff 3c
       0.17350869 -0.005259898 -0.056072995 0.031141149
0001b0 22 00 c8 bd bb 84 08 3c 61 c3 5b bd f5 e5 18 bc
       -0.0976565 0.008332427 -0.053653125 -0.00933217
0001c0 72 5d 48 bd 60 a3 10 3e 8a 4b 84 bd 70 58 95 3c
       -0.04891724 0.14124823 -0.064597204 0.018230647
0001d0 2c 3e e7 3d 05 85 4b 3d 90 9d 77 bd dc cc 8d 3c
       0.11291155 0.049687404 -0.060452998 0.017309599
0001e0 18 a2 87 3c a8 2c 1a 3d 5a c1 52 3d ac 0b e3 3d
       0.016556785 0.037640244 0.051453926 0.110862106
0001f0 f1 ac 35 be 43 03 1c be 99 0b a4 bd 01 f3 50 bc
       -0.17741753 -0.15235619 -0.080100246 -0.012753249
000200 10 13 3d bd 7e 13 e9 3c 40 1a 07 3c 85 9a b8 3d
       -0.046160758 0.028451677 0.008246005 0.09013847
000210 d4 a6 8a 3d c3 7d 91 3d f6 3c e6 3d 8c c7 ce 3c
       0.06770101 0.07104065 0.11242096 0.025241636
000220 18 92 9c 3d 56 09 86 bd 4c 9d 19 bc 97 f2 0d be
       0.07645053 -0.065447494 -0.009375881 -0.13862072
000230 2a 76 3c 3c 27 98 e8 3c fb 98 e3 3d ba f6 3c 3d
       0.011502782 0.028392864 0.11113163 0.046133734
000240 23 3d 1b 3b 67 4a a5 3d 58 89 ac bd f3 64 90 bc
       0.0023687563 0.08070832 -0.08424634 -0.017626261
000250 dd 14 9c 3d 79 08 1e 3e 7d 74 1f be fb 6f e7 bd
       0.07621167 0.1543292 -0.1557178 -0.113006555
000260 16 0a d9 bd f9 ea e3 bd ae ff 23 bc 9d 99 d3 3c
       -0.10597627 -0.11128802 -0.010009689 0.025830084
000270 66 dd 8a 3d fa 36 e8 bd ee 0c 50 3d ec fe 07 be
       0.0678051 -0.11338611 0.05079358 -0.13280839
000280 6a cf 7f ba 96 c4 0f be 1c 80 ad bd 25 16 9f bd
       -0.0009758385 -0.14039835 -0.084717005 -0.077678956
000290 6d d7 a9 3c b7 6e 9b bd a0 32 d3 3d f9 ed 1b bd
       0.020732606 -0.075894766 0.1031239 -0.038068745
0002a0 32 c1 5f bd a3 fc bc 3d 8e 2c e6 3d 08 ce 58 bc
       -0.054627605 0.09227874 0.11238967 -0.013232715
0002b0 5a 3a 26 bd 5f 95 9a bd 04 af 0b be f8 41 4c bd
       -0.040582992 -0.075480215 -0.13640982 -0.0498676
0002c0 d2 92 3c be 79 da f8 bd 39 fe 95 3c 6a 31 30 be
       -0.18415383 -0.12151045 0.0183097 -0.1720635
0002d0 80 b2 bc 3c 2e 0a d1 bd 92 cb 72 bd f0 f9 18 bd
       0.023034334 -0.1020702 -0.05927617 -0.037347734
0002e0 ad 89 09 3e 58 df 05 bd af d3 41 bd e7 3f 87 3d
       0.13431425 -0.0326837 -0.047321018 0.06603985
0002f0 27 68 bc bd 57 6d dc bd 9e 3d 6b bd f1 fc c9 bc
       -0.09199553 -0.107630424 -0.05743181 -0.024656745
000300 e9 a7 e0 bc d6 af 3f bd da cf a9 3d 26 ce b8 bd
       -0.027423816 -0.04679855 0.08291598 -0.09023695
000310 47 fe 30 bd 8f d0 9c 3d 3f 2d dd bd d4 5b c5 3d
       -0.043211248 0.07656967 -0.10799646 0.096366554
000320 8b e3 26 3c d1 7c d3 3d 42 06 8f bd 7c 58 57 3d
       0.010186086 0.10326541 -0.069836155 0.05257462
000330 c7 0b 17 3d b3 50 d6 3d 0b b3 95 3d 9d e2 d5 bd
       0.036876466 0.10464611 0.0730954 -0.10443614
000340 f4 5a ad 3c de 40 f0 3d e7 eb db bc 87 a4 54 bb
       0.021161534 0.117311224 -0.026845885 -0.0032446699
000350 bb a8 93 bd d3 58 db bd c3 2c 60 3d a5 ea ca 3c
       -0.07209917 -0.10710301 0.054730188 0.02477009
000360 40 b7 bd 3c 76 23 c6 3d 4f fa 1e 3d f0 f1 98 3d
       0.02315867 0.096747324 0.03881293 0.07468021
000370 ba 41 ff bd 0a e7 bc bb 78 99 ae 3d b5 5a ab 3d
       -0.12463708 -0.0057648467 0.085253656 0.0836691
000380 66 c5 47 3d 2b 21 6e 3d 0a a3 dd 3a 2e 21 5d 3d
       0.04877224 0.0581371 0.0016909551 0.05398672
000390 59 d1 2b 3d c7 da 47 3d 01 11 15 3e b0 2e 0e 3e
       0.041947696 0.048792627 0.14557268 0.13884997
0003a0 c7 c9 33 3d fb 4e 17 be 19 83 17 be 5e 9f e1 bc
       0.0438936 -0.14776222 -0.14796104 -0.027541813
0003b0 9a d9 e2 3d 66 ba ae bb 93 43 be 3c 67 95 16 3e
       0.110766605 -0.005332279 0.023225581 0.1470543
0003c0 51 3d 04 bd 83 d1 a4 3c d1 8d 04 bd c7 d0 a6 bd
       -0.03228504 0.020119434 -0.03236181 -0.0814529
0003d0 13 fa a2 bd c1 6a ee 3d 75 3d 96 bd a5 aa 91 bd
       -0.07957854 0.116414554 -0.07335941 -0.07112626
0003e0 6c ed fd bd fe 47 01 be 7f 0b 83 bd 2a 51 4c bd
       -0.123988 -0.12625119 -0.06398677 -0.04988209
0003f0 ea b0 fc bc bd bf 9b 3c 6d 97 c6 bd a4 d4 85 3d
       -0.030846078 0.019012326 -0.09696851 0.065346986

conv_2.conv.0.bias f4 [24]
000000 60 a9 98 3d 4f 15 b5 bd 94 6b bd 3d 16 d0 06 3e
       0.07454181 -0.08841955 0.092490345 0.13165316
000010 15 a7 b0 bd 12 0d 91 bd 19 2c 0c be 2c 25 72 bd
       -0.08625618 -0.07082571 -0.13688697 -0.05911748
000020 01 d5 d7 bd ee 8e f1 3d ec 54 9f bd 78 1a 40 bd
       -0.10538674 0.1179484 -0.077798694 -0.046900243
000030 03 6b e5 bd 28 e4 a2 3d 81 c5 c0 3d 1b 3f b5 bd
       -0.112020515 0.079536736 0.09412671 -0.08849927
000040 25 f8 b0 bd 4b 3a 68 3d d3 57 62 3d fa 3e 93 3c
       -0.0864108 0.056696218 0.055259537 0.017974366
000050 e5 ad ed bb a9 dd e5 3c 13 52 91 3d 10 9d b3 bd
       -0.007253396 0.028059797 0.070957325 -0.08770192

conv_2.conv.1.weight f4 [24]
000000 5a ff 95 3f 56 5b 8e 3f 88 36 95 3f 3a 41 8e 3f
       1.1718552 1.1121624 1.1657267 1.1113656
000010 03 b1 90 3f 70 41 81 3f b1 a0 91 3f 71 cd 82 3f
       1.130402 1.0098095 1.1377164 1.0218946
000020 01 3e 8f 3f cc eb 84 3f 4e 07 95 3f da 45 96 3f
       1.1190797 1.038446 1.1642854 1.1740067
000030 49 fd 82 3f d9 65 90 3f b7 ac 95 3f ef b3 89 3f
       1.0233546 1.1281081 1.1693333 1.0758036
000040 9f bb 83 3f db c0 98 3f f8 0a 91 3f da 19 8c 3f
       1.0291632 1.1933855 1.1331472 1.0945389
000050 d7 1c 96 3f 10 5e 93 3f 9b d6 8f 3f 43 99 98 3f
       1.1727551 1.1513081 1.1237367 1.1921772

conv_2.conv.1.bias f4 [24]
000000 d6 d5 fb 3d 0a 61 bc 3c 5b 11 f6 3d 5b f6 93 3c
       0.12296645 0.02299549 0.12015029 0.018061807
000010 7d a8 df 3d 9d 48 f7 3b ef 54 e6 3d 77 e9 ee bc
       0.109208085 0.007546498 0.112466685 -0.02916406
000020 45 dd ca 3d 6c 6c 34 3c ca a3 fe 3d 5e 91 05 3e
       0.09905485 0.011012178 0.12433584 0.13043734
000030 56 67 9a bb dc be df 3d 3c 9f ef 3d 01 74 36 3c
       -0.0047120256 0.109250754 0.117002934 0.011136056
000040 6e ee df bc 97 45 d4 3d 39 e3 e1 3d 0b ed 5c 3d
       -0.027335372 0.10364836 0.110296674 0.053937
000050 63 f5 f8 3d 88 e2 e7 3d 9f d0 d8 3c 66 a3 d1 3d
       0.12156179 0.11322504 0.026466666 0.10236244

conv_2.conv.1.running_mean f4 [24]
000000 c1 39 06 3f 49 7a b5 bf 78 a2 ff 3e 48 d0 77 bf
       0.52431875 -1.4177943 0.4992864 -0.96802187
000010 60 f8 01 3f be 7c 11 bf 66 2d 8f 3e 0c 33 18 bf
       0.50769615 -0.56830966 0.27964324 -0.5945289
000020 a5 7e c1 3e ee c7 3d bf f1 bf 8d 3f b9 cc 25 3f
       0.37791935 -0.74133193 1.1074201 0.64765507
000030 4c f0 92 bf 98 21 d1 3e 8a d9 0e 3f 64 09 b3 bf
       -1.1479583 0.40845942 0.5580069 -1.3987241
000040 1e bd 2d bf 67 3e a5 3e 0e d2 24 3f d1 70 55 3f
       -0.67866695 0.32274172 0.6438302 0.8337527
000050 6a 73 01 3f 51 8c 04 3f d8 72 0c bf 84 72 62 3e
       0.5056673 0.51776606 -0.5486274 0.22113997

conv_2.conv.1.running_var f4 [24]
000000 2b ac 84 3d ab 0c 33 3e c4 be 8d 3d 88 ef dd 3d
       0.06478151 0.17485301 0.06921151 0.108367026
000010 d3 5a a8 3d c2 30 9a 3d ef 2c 75 3d 3b 81 34 3d
       0.08220448 0.07528831 0.059857305 0.044068556
000020 f7 de 22 3d eb dc 25 3e a1 c1 07 3e 39 af bb 3d
       0.039763417 0.16197555 0.13257457 0.091642804
000030 74 f1 23 3e be 5f 7e 3d de 90 53 3d 04 20 16 3e
       0.16010076 0.062103026 0.051651828 0.1466065
000040 fb 80 cb 3d 41 1b bf 3e cc 42 9b 3d a5 fd 14 3e
       0.099367104 0.3732548 0.075811 0.14549883
000050 56 db 8d 3e 97 ab 9b 3d ad 15 a9 3d 57 51 3b 3e
       0.27706403 0.076010875 0.082560875 0.18292747

flaten.conv.0.weight f4 [1, 24, 1, 1]
000000 4f 3a 04 be 0e e0 4a 3e 37 92 47 be 62 79 18 3e
       -0.12912868 0.19812033 -0.1948937 0.14890054
000010 e3 d6 4d be 80 19 81 3d e0 c0 39 be 5e f4 53 3e
       -0.20101504 0.06303692 -0.18139982 0.20698687
000020 c5 ff 90 be 17 fc 69 3e 97 17 00 be cc 25 eb bd
       -0.28320137 0.22850071 -0.12508999 -0.114818186
000030 47 c4 10 3e 75 ae 6f be ce 57 74 be c1 71 11 3e
       0.14137374 -0.23406394 -0.2386162 0.1420355
000040 f0 70 a8 3d eb 83 09 be f9 82 59 be bd 17 87 be
       0.08224666 -0.13429229 -0.21241368 -0.26385298
000050 3a 5c 0c be 80 bb 26 be 4c 8d 13 3e 04 76 0d be
       -0.13707057 -0.16282463 0.14409369 -0.1381455
