image_change_detection/change_detector/SAR_model/model/checkpoints/checkpoints_DCP0_val_0.316905.pth (torch, 12190 bytes, 13 tensors)

conv_1.conv.0.weight f4 [12, 2, 2, 2]
0.22816694 -0.2839462 -0.27857912 -0.3755549 0.1359767 -0.07201986 0.25920832 -0.13189827
0.13864985 -0.1877913 0.26305124 -0.1222523 -0.32701 -0.3066788 0.2646584 -0.21241301
-0.17759919 0.33741933 0.2905587 -0.1772477 0.0018307755 -0.24389866 -0.33015108 0.13277137
-0.014953741 -0.30188534 0.09318338 0.25628725 -0.049749587 0.22596337 0.2832745 0.17034155
-0.31319392 0.32075182 -0.29910347 0.08183675 0.13441491 -0.34627387 0.3416252 0.14324795
-0.29324952 -0.030822666 0.26618657 -0.27514595 -0.09460156 -0.34551618 0.20018677 -0.014777092
-0.22427604 -0.121100776 0.12802903 -0.1493263 -0.28976092 -0.065629415 -0.13044405 0.24777803
-0.34158 -0.08913772 0.3130858 -0.29341304 0.019704172 -0.19372627 -0.0038416146 -0.3378058
0.2880704 -0.12797697 -0.14356968 0.17691131 -0.24756469 0.007069988 0.11685117 -0.25020862
0.2493795 0.2128781 0.15483862 0.25523943 -0.2624266 -0.23086578 -0.27391607 -0.3103744
0.2928475 0.025771057 0.085804574 0.29081386 -0.14739579 0.17911762 -0.004049456 -0.07415378
-0.21407865 0.17386112 -0.13273737 -0.17453513 0.32744682 -0.28127426 0.15142296 0.050708532
00000000: 98a4 693e 6561 91be eca1 8ebe bb48 c0be
00000010: 7a3d 0b3e 267f 93bd f4b6 843e 5710 07be
00000020: 3afa 0d3e 5d4c 40be a7ae 863e 6a5f fabd
00000030: db6d a7be 0105 9dbe 4e81 873e cc82 59be
00000040: 90dc 35be 3ac2 ac3e 1cc4 943e 6c80 35be
00000050: a2f6 ef3a 92c0 79be 9009 a9be 38f5 073e
00000060: 8900 75bc b790 9abe eed6 be3d 1538 833e
00000070: 39c6 4bbd f162 673e 5b09 913e 046e 2e3e
00000080: f45a a0be 9539 a43e 1724 99be 079a a73d
00000090: 10a4 093e cf4a b1be 80e9 ae3e 97af 123e
000000a0: cd24 96be d17f fcbc 9b49 883e eedf 8cbe
000000b0: 76be c1bd 7fe7 b0be c3fd 4c3e 9e1b 72bc
000000c0: 9ea8 65be af03 f8bd 0b1a 033e fee8 18be
000000d0: 8b5b 94be b768 86bd 2093 05be 86b9 7d3e
000000e0: 93e3 aebe d68d b6bd c84c a03e 3c3a 96be
000000f0: a56a a13c 2e60 46be 99c3 7bbb e2f4 acbe
00000100: f77d 933e 650c 03be ee03 13be 3d28 353e
00000110: 9981 7dbe 5cab e73b ab4f ef3d 581b 80be
00000120: 575d 7f3e b7fc 593e 048e 1e3e beae 823e
00000130: c85c 86be 1468 6cbe ba3e 8cbe 65e9 9ebe
00000140: 1cf0 953e d31d d33c 4fba af3d 8ee5 943e
00000150: ecee 16be 9c6a 373e 4db1 84bb f0dd 97bd
00000160: 6f37 5bbe a608 323e 4eec 07be 56b9 32be
00000170: 1ca7 a73e 2e03 90be 9f0e 1b3e c0b3 4f3d

conv_1.conv.0.bias f4 [12]
0.18488099 -0.29732642 -0.052361622 0.20084637 0.339259 0.12752388 -0.2258749 -0.066134095
0.1386719 0.20413275 0.11856042 -0.061317697
00000000: 7151 3d3e 2b3b 98be 2479 56bd acaa 4d3e
00000010: 5bb3 ad3e 9f95 023e c04b 67be 5071 87bd
00000020: 0200 0e3e 2d08 513e cecf f23d 4428 7bbd

conv_1.conv.1.weight f4 [12]
0.98088634 0.97709745 0.99679583 0.9720653 0.96813047 0.97315997 1.0161375 1.0211359
1.0217218 1.0349246 0.9994048 1.0039594
00000000: 5e1b 7b3f 0f23 7a3f 032e 7f3f 46d9 783f
00000010: 66d7 773f 0321 793f cb10 823f 95b4 823f
00000020: c8c7 823f 6978 843f fed8 7f3f be81 803f

conv_1.conv.1.bias f4 [12]
0.016318383 -0.011951505 -0.040432725 0.010926599 -0.03273992 -0.03854822 0.02213021 0.012048417
-0.03388765 -0.03149208 0.03889868 -0.021225521
00000000: 21ae 853c 3fd0 43bc c99c 25bd 7a05 333c
00000010: 4b1a 06bd bde4 1dbd 6a4a b53c b966 453c
00000020: c7cd 0abd d7fd 00bd 3954 1f3d 25e1 adbc

conv_1.conv.1.running_mean f4 [12]
-39.356697 -30.59997 -8.12392 42.768234 2.609887 -40.237755 -42.081615 -62.742382
-9.609236 -5.082749 47.661877 -9.373951
00000000: 426d 1dc2 bdcc f4c1 94fb 01c1 ac12 2b42
00000010: 6308 2740 76f3 20c2 9353 28c2 33f8 7ac2
00000020: 6ebf 19c1 e1a5 a2c0 c3a5 3e42 b4fb 15c1

conv_1.conv.1.running_var f4 [12]
2199.034 2688.4182 721.2615 1854.6017 1127.4878 1882.9164 1371.8466 2362.138
511.56454 2344.1318 871.8809 680.48505
00000000: 8b70 0945 b106 2845 bc50 3444 41d3 e744
00000010: 9cef 8c44 535d eb44 177b ab44 35a2 1345
00000020: 43c8 ff43 1c82 1245 61f8 5944 0b1f 2a44

conv_2.conv.0.weight f4 [24, 12, 2, 2]
0.084836334 -0.025101282 -0.072263435 -0.0020381894 0.13236012 0.080985 -0.07456247 -0.08058229
0.02253838 -0.027801454 0.09885725 0.14628147 0.03454645 0.042155758 0.01791908 -0.030950235
-0.00075783994 -0.055341672 -0.02154029 -0.040889725 -0.10059214 -0.036709234 0.013701001 -0.10483432
0.09044696 -0.12313541 -0.0041219485 0.06200367 0.0057324157 -0.093136236 -0.0025287692 0.048951086
-0.090269975 0.14440823 0.082266964 0.08107477 0.11790253 0.017469041 -0.08374712 -0.037234105
-0.09715916 -0.12385125 0.100328326 -0.021296997 0.005052325 0.17521618 0.081807025 -0.05116537
0.05442941 -0.08950104 0.009810688 -0.0667715 -0.12884456 -0.122081965 0.054014847 0.07530521
-0.10977262 -0.08508138 0.05584936 -0.10296397 -0.16553938 -0.11571498 0.0081569 -0.09714281
0.035993773 0.098363504 -0.04258503 -0.016488211 -0.081047155 -0.12609231 -0.13451582 -0.01547704
0.061328 -0.058334105 0.060330737 0.04223939 0.05264575 0.09488092 0.042869445 -0.08936595
0.025026072 -0.09094926 -0.040966984 0.043872997 -0.13761029 -0.14251466 -0.11388404 -0.12507959
0.0076846336 -0.0537782 -0.007658405 -0.051829163 0.0508735 -0.095845126 -0.12998499 0.05977001
0.11361207 -0.013938654 -0.055936463 0.14663683 -0.026474027 0.04573396 -0.0162228 -0.023050299
0.17206527 -0.0034840445 -0.0622848 0.028179381 -0.09333197 0.0007832862 -0.07904864 -0.04634455
-0.06424502 0.14120945 -0.09347343 -0.010107393 0.103070706 0.036124762 -0.04749474 0.023783907
0.026818426 0.010681363 0.033240534 0.10576019 -0.16696826 -0.1538998 -0.056861892 -0.008562639
-0.05073861 0.03100235 0.0066898507 0.09816502 0.05191859 0.051179957 0.10373611 0.007171327
0.12336084 -0.041709807 0.013195158 -0.1321514 -0.009403496 0.014524092 0.08954398 0.033323403
0.02194605 0.09789006 -0.10601002 -0.027719982 0.06579073 0.12460735 -0.15287161 -0.13511142
-0.08129916 -0.10946825 0.028796071 0.08242702 0.06626238 -0.09348019 0.018426938 -0.13055791
0.030360263 -0.12996805 -0.08713609 -0.07179893 0.022680834 -0.0844708 0.09451424 -0.0789438
-0.021478988 0.110175125 0.14333147 -0.010361965 -0.028751187 -0.102264576 -0.1325476 -0.06787611
-0.18166463 -0.14825775 0.06882097 -0.15173042 0.07264824 -0.07168376 -0.0018224791 0.02576055
0.11587508 -0.08261873 -0.06774845 0.064182386 -0.07613466 -0.072686486 -0.062993675 0.0050542
-0.039764684 -0.06462643 0.06743112 -0.118861094 -0.0451251 0.08113417 -0.10048086 0.09270971
0.010286502 0.11241322 -0.09497928 0.04596041 0.04215392 0.09942962 0.07230389 -0.117101006
-0.0011093622 0.12388733 -0.04231799 -0.0067078136 -0.06558666 -0.10239542 0.04866218 0.0154736135
0.04730932 0.106252246 0.055835612 0.0847937 -0.108707376 -0.0023989875 0.07369161 0.073620915
0.043529052 0.06996938 -0.01610798 0.054039776 0.018204045 0.041061796 0.12092282 0.124905735
0.05239152 -0.14514595 -0.15392259 -0.022664905 0.09844132 -0.022206852 0.015621972 0.13310453
0.023637298 0.018543184 -0.030278591 -0.07791539 -0.08387411 0.09988885 -0.08865267 -0.09966118
-0.10241711 -0.09537879 -0.039115775 -0.017913945 0.040282767 0.066986695 -0.04709151 0.10446987
00000000: acbe ad3d 34a1 cdbc dafe 93bd 2593 05bb
00000010: 6989 073e 77db a53d 35b4 98bd 5408 a5bd
00000020: 69a2 b83c e0bf e3bc ab75 ca3d cfca 153e
00000030: 9480 0d3d 84ab 2c3d 09cb 923c 598b fdbc
00000040: c7a9 46ba f3ad 62bd 4375 b0bc fc7b 27bd
00000050: 4003 cebd 6c5c 16bd 2a7a 603c 60b3 d6bd
00000060: 413c b93d 6b2e fcbd 6911 87bb 8ff7 7d3d
00000070: fdd6 bb3b 36be bebd b5b9 25bb ef80 483d
00000080: 77df b8bd c0df 133e 957b a83d 870a a63d
00000090: e276 f13d 3c1b 8f3c 9c83 abbd ca82 18bd
000000a0: 62fb c6bd b9a5 fdbd f078 cd3d 0a77 aebc
000000b0: f98d a53b df6b 333e 718a a73d c792 51bd
000000c0: 5ff1 5e3d 524c b7bd 02bd 203c 7fbf 88bd
000000d0: d4ef 03be 1c06 fabd ac3e 5d3d 9e39 9a3d
000000e0: 78d0 e0bd 263f aebd 4cc2 643d c6de d2bd
000000f0: 2883 29be fafb ecbd 85a4 053c cff2 c6bd
00000100: 356e 133d ce72 c93d a46d 2ebd 4912 87bc
00000110: 0dfc a5bd 581e 01be 84be 09be 6993 7dbc
00000120: 1233 7b3d beef 6ebd 5d1d 773d 3603 2d3d
00000130: 12a3 573d ee50 c23d df97 2f3d 7f05 b7bd
00000140: 7a03 cd3c 9b43 babd ffcc 27bd 2cb4 333d
00000150: b6e9 0cbe 5def 11be 093c e9bd dd14 00be
00000160: 61cf fb3b 8846 5cbd 5cf3 fabb d14a 54bd
00000170: bb60 503d 734a c4bd c91a 05be 66d1 743d
00000180: 72ad e83d f45e 64bc a21d 65bd f727 163e
00000190: 0fe0 d8bc 8853 3b3d ade5 84bc fbd3 bcbc
000001a0: e131 303e 9154 64bb 591e 7fbd 72d8 e63c
000001b0: d524 bfbd 7255 4d3a 41e4 a1bd c8d3 3dbd
000001c0: e592 83bd 3699 103e ff6e bfbd 7b99 25bc
000001d0: bc16 d33d 8ff7 133d d889 42bd 78d6 c23c
000001e0: 51b2 db3c e200 2f3c 3a27 083d cc98 d83d
000001f0: baf9 2abe e997 1dbe 04e8 68bd 504a 0cbc
00000200: 4ad3 4fbd a4f8 fd3c 8936 db3b be0a c93d
00000210: 96a8 543d 13a2 513d 9973 d43d 73fd ea3b
00000220: 9ca4 fc3d e7d7 2abd 8130 583c b252 07be
00000230: 1f11 1abc 75f6 6d3c d662 b73d 1f7e 083d
00000240: 34c8 b33c 957a c83d c81b d9bd 0415 e3bc
00000250: 4abd 863d 2332 ff3d 608a 1cbe a65a 0abe
00000260: 2d80 a6bd e430 e0bd bde5 eb3c 7fcf a83d
00000270: 92b4 873d 8b72 bfbd 17f4 963c f9b0 05be
00000280: 16b6 f83c 5816 05be 6874 b2bd 510b 93bd
00000290: 28cd b93c 07ff acbd af90 c13d 49ad a1bd
000002a0: b4f4 afbc 7fa3 e13d 7cc5 123e 3bc5 29bc
000002b0: 9c87 ebbc 1770 d1bd 8fba 07be a102 8bbd
000002c0: 4b06 3abe e1d0 17be 02f2 8c3d 385f 1bbe
000002d0: 9ac8 943d efce 92bd 40e0 eeba ca07 d33c
000002e0: ea4f ed3d 0234 a9bd b3bf 8abd 0e72 833d
000002f0: 7dec 9bbd a7dc 94bd d402 81bd b49d a53b
00000300: 4be0 22bd dd5a 84bd 5419 8a3d 726d f3bd
00000310: 19d5 38bd ac29 a63d e9c8 cdbd 97de bd3d
00000320: b788 283c e738 e63d 7f84 c2bd fc40 3c3d
00000330: 97a9 2c3d c2a1 cb3d 1014 943d a7d2 efbd
00000340: 0568 91ba a4b8 fd3d a155 2dbd 38cd dbbb
00000350: 4c52 86bd b1b4 d1bd fe51 473d 0a85 7d3c
00000360: 6bc7 413d c79a d93d e2b3 643d 52a8 ad3d
00000370: f9a1 debd 5538 1dbb a0eb 963d 90c6 963d
00000380: 854b 323d 1b4c 8f3d e2f4 83bc d058 5d3d
00000390: a620 953c 6a30 283d 62a6 f73d 94ce ff3d
000003a0: 7e98 563d 24a1 14be e29d 1dbe c0ab b9bc
000003b0: 9a9b c93d 25eb b5bc 4df3 7f3c 8e4c 083e
000003c0: 02a3 c13c e0e7 973c cf0a f8bc 1b92 9fbd
000003d0: 30c6 abbd 8692 cc3d 888f b5bd 291b ccbd
000003e0: 10c0 d1bd f455 c3bd dd37 20bd 44c0 92bc
000003f0: 8bff 243d 5230 893d 07e3 40bd 4df4 d53d

conv_2.conv.0.bias f4 [24]
0.07480728 -0.08955596 0.09289578 0.13215345 -0.08609563 -0.07068398 -0.13537426 -0.055839173
-0.104221225 0.118161164 -0.07822122 -0.046908047 -0.11178038 0.07985655 0.09360877 -0.08912866
-0.08648265 0.056825675 0.05619966 0.017619377 -0.0066299983 0.028481415 0.069952115 -0.08794191
00000000: 8f34 993d 1d69 b7bd 2540 be3d 3c53 073e
00000010: e852 b0bd c3c2 90bd 8d9f 0abe 9eb7 64bd
00000020: f071 d5bd 7bfe f13d 7232 a0bd a722 40bd
00000030: 1ded e4bd d58b a33d f4b5 bf3d 1689 b6bd
00000040: d11d b1bd 0ac2 683d 9d31 663d 8356 903c
00000050: 7540 d9bb db51 e93c 0e43 8f3d e31a b4bd

conv_2.conv.1.weight f4 [24]
1.0619993 1.0245488 1.0620681 1.0092366 1.0540473 0.9736528 1.0503935 0.9812282
1.0480639 0.98721707 1.0598795 1.0641025 0.9737442 1.0550566 1.0634754 0.9982973
0.98289865 1.0729715 1.0468668 1.0312405 1.0621978 1.0572515 1.0158254 1.0523387
00000000: 98ef 873f 6a24 833f d9f1 873f aa2e 813f
00000010: 06eb 863f 4f41 793f 4b73 863f c531 7b3f
00000020: f526 863f 42ba 7c3f 22aa 873f 8334 883f
00000030: 4d47 793f 180c 873f f61f 883f 6990 7f3f
00000040: 3f9f 7b3f 2157 893f bbff 853f b0ff 833f
00000050: 19f6 873f 0454 873f 9106 823f 09b3 863f

conv_2.conv.1.bias f4 [24]
0.048773114 -0.0012520159 0.04495639 -0.006882764 0.045214843 -0.016097808 0.043228526 -0.02510762
0.03979319 -0.01001728 0.051382564 0.05217617 -0.017466132 0.047391362 0.04129601 -0.012136142
-0.025847603 0.037520863 0.037271794 0.022306757 0.048464213 0.04415924 -0.0051819715 0.018823428
00000000: 51c6 473d af1a a4ba 3124 383d cf88 e1bb
00000010: 3333 393d 8ddf 83bc 6510 313d 7fae cdbc
00000020: 2ffe 223d 841f 24bc 8676 523d aeb6 553d
00000030: 2215 8fbc 721d 423d 0126 293d abd6 46bc
00000040: 5abe d3bc 7aaf 193d 4faa 183d a9bc b63c
00000050: 6982 463d 52e0 343d 87cd a9bb 9733 9a3c

conv_2.conv.1.running_mean f4 [24]
0.2484073 -1.5518718 0.3743605 -0.8597142 0.361782 0.11678128 0.056892686 0.034668
0.34775168 -0.28958735 1.0830848 0.4732031 -0.6157989 0.35922977 0.49114415 -0.86759424
0.34402388 0.20607406 0.6634324 0.6062364 0.48398924 0.34511998 -0.29199743 0.023020657
00000000: 7c5e 7e3e bca3 c6bf 2eac bf3e 3b16 5cbf
00000010: 7e3b b93e 062b ef3d 4e08 693d 0800 0e3d
00000020: 820c b23e cb44 94be 86a2 8a3f ad47 f23e
00000030: ffa4 1dbf f7ec b73e 3f77 fb3e a81a 5ebf
00000040: e623 b03e 1405 533e b5d6 293f 4f32 1b3f
00000050: 70cd f73e 91b3 b03e b080 95be d195 bc3c

conv_2.conv.1.running_var f4 [24]
0.05597051 0.32129735 0.0774439 0.14682305 0.0672621 0.20391642 0.06838758 0.1056683
0.03826637 0.22030294 0.109847866 0.09237416 0.15000269 0.049351633 0.0537761 0.18016075
0.1450749 0.3810029 0.15360446 0.22839852 0.39189982 0.081344485 0.079370335 0.24175349
00000000: 5541 653d 1681 a43e e89a 9e3d c858 163e
00000010: b6c0 893d 77cf 503e ca0e 8c3d 9f68 d83d
00000020: 32bd 1c3d 1897 613e ebf7 e03d aa2e bd3d
00000030: 4e9a 193e f024 4a3d 5444 5c3d 0f7c 383e
00000040: 848e 143e d012 c33e 7d4a 1d3e 4de1 693e
00000050: 18a7 c83e f097 a63d ea8c a23d 3a8e 773e

flaten.conv.0.weight f4 [1, 24, 1, 1]
-0.058236383 0.12358521 -0.11479675 0.06839984 -0.14016053 0.028722879 -0.11338459 0.16748156
-0.22026232 0.1801275 -0.06029362 -0.04972451 0.09415167 -0.1728598 -0.15030403 0.07863108
0.042024028 -0.06117089 -0.14199263 -0.20667581 -0.06794852 -0.09455778 0.06356003 -0.049790762
00000000: 4689 6ebd 3e1a fd3d 8f1a ebbd 3715 8c3d
00000010: 3e86 0fbe 3e4c eb3c 2e36 e8bd 4980 2b3e
00000020: 728c 61be 5873 383e 71f6 76bd eeab 4bbd
00000030: 97d2 c03d 2902 31be 4de9 19be 5509 a13d
00000040: 6321 2c3d 548e 7abd 8466 11be d3a2 53be
00000050: 9828 8bbd 82a7 c1bd c32b 823d 66f1 4bbd
