image_change_detection/change_detector/SAR_model/model/checkpoints/checkpoints_DCP7_val_0.075595.pth (torch, 12190 bytes, 13 tensors)

conv_1.conv.0.weight f4 [12, 2, 2, 2]
00000000: 40a6 333e 5d66 98be dc6e 9abe a486 d0be
00000010: 1a0a 313e b99f 2a3c d31b 833e 3276 37bd
00000020: 727a 173e 9a3e 28be 91b9 503e 0139 37be
00000030: d5ca b4be bf7d bcbe 61ae 573e 84d1 5ebe
00000040: 7fc8 fbbd 8c51 953e f02a 953e 3f4c 48be
00000050: 55d9 103c e7b0 a2be a729 b6be d3b4 e13d
00000060: 41bc 68bd b045 b8be c197 35bb ae9e 203e
00000070: 88fd acbc 78f9 963e 07f6 523e 4d44 123e
00000080: deb2 a7be 965e 953e 32b9 b5be 4f07 70bc
00000090: c455 103e f738 a7be d5e5 a93e 47af 0e3e
000000a0: 6ba0 a5be 7598 afbc 73bc 573e 8921 a0be
000000b0: 3feb e3bd afe0 c2be 7ff4 123e f09a 4ebc
000000c0: 2277 18be efe7 20be 2fdf e53d 10bf 68be
000000d0: 076d a1be 17de 8cbd f2af 14be 283a 5c3e
000000e0: 1573 cabe 2120 c0bd e9c8 953e 0974 85be
000000f0: 3525 ecba 64f3 2ebe e095 d5bc f087 a9be
00000100: 77f2 7c3e 4a8e d1bd 78a4 19be 0b15 483e
00000110: 718f 96be b41b 083c d540 783d 1b0b 95be
00000120: 010d 693e 93fb 593e 62db 563e ee24 943e
00000130: 42c6 81be bf42 6cbe 6cca 86be 04b4 8abe
00000140: dadf 963e 7cba 483d d114 c03d 6728 933e
00000150: 0bb8 1ebe fb8b 143e 2007 fdbc 055d e3bd
00000160: 8889 94be 60a1 0c3e 63ce 56be ea12 61be
00000170: ca99 8c3e b109 4ebe 85fc 283e 9f1d dc3d
0.17543888 -0.29765597 -0.30162704 -0.40727723 0.1728901 0.010414057 0.25607166 -0.044790454
0.14792803 -0.1643013 0.20383288 -0.17892839 -0.35311 -0.36814687 0.21062614 -0.21759611
-0.12294101 0.29163778 0.2913432 -0.19560336 0.0088408785 -0.3177559 -0.35578653 0.110208176
-0.056820158 -0.35990667 -0.002770886 0.15685531 -0.021116987 0.29487205 0.20601664 0.14283867
-0.32753652 0.29173726 -0.35492855 -0.01465018 0.14095217 -0.32660648 0.3318316 0.1393405
-0.32348952 -0.021435002 0.21067981 -0.31275585 -0.11128854 -0.38062045 0.1435108 -0.012610182
-0.14889196 -0.15713476 0.112242095 -0.22729135 -0.31528494 -0.06878298 -0.14520243 0.2150656
-0.39540926 -0.09381128 0.29254845 -0.2606509 -0.001801646 -0.17085034 -0.026072443 -0.33111525
0.24701868 -0.102322176 -0.15004146 0.19539277 -0.29406312 0.008307386 0.060608704 -0.29110035
0.22758867 0.21287374 0.20982125 0.28934425 -0.2534657 -0.23072337 -0.2632631 -0.27090466
0.2946766 0.04900597 0.093789704 0.28741762 -0.15499894 0.14506523 -0.030887187 -0.111017264
-0.29011178 0.13733435 -0.20977168 -0.21979871 0.27461082 -0.20120884 0.16502579 0.10747837

conv_1.conv.0.bias f4 [12]
00000000: 325f 3d3e b238 98be 6f59 56bd ba96 4d3e
00000010: 14ae ad3e 4e9d 023e 6248 67be 8260 87bd
00000020: 250d 0e3e 3bf0 503e 1276 f23d e9b6 79bd
0.18493345 -0.29730755 -0.052331384 0.20077029 0.33921874 0.1275532 -0.22586206 -0.06610204
0.13872202 0.2040414 0.118389264 -0.060965452

conv_1.conv.1.weight f4 [12]
00000000: 8697 713f 9944 723f 3a7f 7e3f 86af 703f
00000010: 3600 723f c87f 743f 7d48 813f 386d 843f
00000020: 1c1a 813f 067d 883f 2cb0 763f 16a2 843f
0.9437183 0.9463592 0.9941288 0.9401783 0.9453157 0.9550748 1.0100247 1.0345831
1.0086093 1.0663154 0.96362567 1.0361965

conv_1.conv.1.bias f4 [12]
00000000: 9b83 32bd cc51 0dbc 84ea b5bd 79fd ef3d
00000010: 75cd d7bd d36c 9bbd dc12 5d3d 1f2b 01bd
00000020: aab6 9ebd 084b 4dbd 96c0 233d 313c 16be
-0.04358254 -0.008625459 -0.08882621 0.11718268 -0.10537235 -0.07589116 0.053973064 -0.031535264
-0.07749684 -0.050120384 0.039978586 -0.14671399

conv_1.conv.1.running_mean f4 [12]
00000000: 6346 0bc2 e328 3ac2 7dc1 84c1 7ee3 a841
00000010: d9bf 2cc1 4aed 5dc2 f20c 4cc2 2da6 86c2
00000020: d8c3 9ac1 43f5 3440 9ddf 2b42 403e a1c1
-34.818737 -46.53993 -16.594477 21.11108 -10.796838 -55.481728 -51.01264 -67.32456
-19.345627 2.8274696 42.968372 -20.155396

conv_1.conv.1.running_var f4 [12]
00000000: 6da9 0145 3a8a 3f45 9a87 6544 22aa 9944
00000010: 186c 8844 739f 0445 1e4b b244 184a 1245
00000020: 6d94 3c44 833b 0745 f78d 4944 81f4 4044
2074.589 3064.6392 918.1188 1229.3167 1091.3779 2121.9656 1426.3474 2340.6309
754.31915 2163.7195 806.2182 771.8204

conv_2.conv.0.weight f4 [24, 12, 2, 2]
00000000: 6437 6b3d 638e 6cbc 4302 8cbd 1699 1f3d
00000010: 1a53 1b3e 1f14 9f3d ac2b a7bd 36b3 46bd
00000020: 679c 7d3c 1f06 6a3a a155 c53d 9485 203e
00000030: bb4f 0abc fe0c b73d 08e6 f73b 3636 33bc
00000040: ddd5 623d 7e9c 51bd ee24 6d3d 0864 1ebc
00000050: c30f a0bd 3fb0 eabc 9a08 b83d 273b b8bd
00000060: 4d49 9f3d 09ac e9bd db39 ee3c 8498 543d
00000070: 9c4d 34bc f674 d3bd 03c6 0e3d faa7 503d
00000080: a442 73bd e9c9 f33d 2d80 933d c0cc a43d
00000090: 3b2b 293e f7b7 723d 823b 8bbd 55a1 8d3c
000000a0: 1929 dcbd d743 e8bd 4798 6e3d bf31 c0bc
000000b0: 224b b33c 1b45 263e 6623 053e 2816 16bd
000000c0: 65f4 21bb 5592 08be 53c9 f23b 849a 4cbc
000000d0: dddf c7bd 72cc e9bd fc6c 863d 75e3 823d
000000e0: 9065 acbd 1b2a e1bd 4f5c af3c 96cb cdbd
000000f0: a707 d8bd 8291 05be 495a 033d d5a1 c4bd
00000100: 784d cdbb f293 6d3d 31c3 82bd ffde 79bd
00000110: 735f 87bd 20ea c1bd d719 39be 719d 9dbc
00000120: 6fa2 583d fe7f 40bd d361 3bbd f61a f33a
00000130: 69f8 4d3d 5d43 e83d 9b03 0c3d 7299 9dbd
00000140: 18dc 8bbc a4dc d4bd 16bd abbd 05fb 8d3c
00000150: 9963 f7bd 3743 2dbe 908e e5bd 3a95 e3bd
00000160: fb22 c83d 0331 b33c 1286 ab3d 9ad9 5c3d
00000170: 878c 2fbd 79d6 0ebe a7b3 1bbe 1282 503c
00000180: a025 903d 062e 0b3b 53d6 09bb 5bb1 193e
00000190: 7bf9 a03c fd15 853d 2f51 c4bc 39ca 20bd
000001a0: fc2d 363e ca0b 94bc 7c55 4bbd 64f7 093d
000001b0: d5be f2bd 69e0 293c 2175 35bd 44ba a43c
000001c0: 9ade 53bd daa8 ed3d 5f5e 8cbd db71 e73c
000001d0: 1f29 ed3d 02e6 723d 424b 8bbd ab61 8b3b
000001e0: 0d32 033c 9ebf 733d 6f52 8a3d c455 cf3d
000001f0: 34dc 48be 0fe2 1fbe 1894 c1bd b313 cfbc
00000200: 7f85 55bd 8c9f a43c 2d97 ae3b cdbf b63d
00000210: d44a 9d3d 981d ae3d bcc0 dd3d 553e 2b3d
00000220: e707 403d 3e09 90bd da09 83bc e08f fcbd
00000230: ce2f 03bb 6913 993c a96f d53d 4fcb 253d
00000240: 0f03 afbc e701 4d3d 8298 a7bd 5dd0 5bbd
00000250: 2113 c43d a5d5 1e3e 75ea ebbd ead5 f1bd
00000260: fbc8 ffbd cde6 eabd b8d5 78bc 1ab5 153b
00000270: e81f 8d3d de59 edbd f947 873d 5896 14be
00000280: 6657 1abd 3a85 f8bd 41cc 96bd 142d 89bd
00000290: fbae 1c3d ea7e 83bd 38b9 dc3d 6e87 16bd
000002a0: f311 73bd cbeb b23d 44b1 d03d 01c6 94bc
000002b0: d27f 25bd d068 9dbd 30ba 14be 1fc5 73bd
000002c0: ab56 2abe 4314 e7bd b742 c2bb 3064 31be
000002d0: b944 5bbb 70f4 e4bd 1f1c 69bd 2574 64bd
000002e0: b55e 063e b8c3 3abc df7d cebc 1e6f 3f3d
000002f0: 314f f9bd b3f6 e1bd 2c5f 95bd 957a 2fbd
00000300: c1d0 b1bc 7d67 05bd 6cef bc3d 54bf 8dbd
00000310: 6afb 07bd ba24 993d 883f ebbd 8d4f d33d
00000320: 48aa 02bc 9dfe c63d f488 3bbd a3b1 993d
00000330: 1fd6 213d d07b e13d 2734 863d 0cbd c7bd
00000340: 7742 f83c d378 c73d bac1 bdbc 238d 60bc
00000350: f074 95bd 3512 ddbd bac9 8d3d ef33 183d
00000360: 74f1 873a c89a be3d 92b3 a63c 965e a13d
00000370: 3ec4 0fbe e206 8eba baed c03d 11c8 cc3d
00000380: 450c 223d e8b1 643d 6214 503c e65f 743d
00000390: f5f9 3b3d c94d 563d f6fa 223e 86ff 213e
000003a0: 4d78 123d a7c8 12be 181d 07be ca47 d7bc
000003b0: 4ba3 ee3d 9ed8 863b 4c9d ac3c 3afb 153e
000003c0: d97a 89bd f2f6 dc3b 7cc1 cebc a042 cebd
000003d0: 14d5 6cbd c145 f73d b09d 90bd 283e 78bd
000003e0: 1b88 07be ba0b 1ebe 52ed b2bd a154 a1bd
000003f0: 2e95 51bd b0c7 903c e8e2 c5bd f21d 7d3d
0.05742587 -0.0144382445 -0.06836369 0.038964354 0.1516842 0.0776751 -0.081626266 -0.048510753
0.015479184 0.0008927304 0.09635473 0.15675956 -0.008441861 0.08938025 0.0075652637 -0.010938218
0.055379737 -0.051174633 0.057896547 -0.009667404 -0.07815506 -0.028648494 0.089860156 -0.089956574
0.07777653 -0.11409766 0.029080322 0.051903263 -0.011004832 -0.10325043 0.034856807 0.050941445
-0.059389725 0.11903746 0.07202182 0.080468655 0.16520397 0.059257474 -0.067984596 0.017288843
-0.10750026 -0.113410644 0.05825069 -0.02346122 0.021886412 0.16237299 0.13001785 -0.036642224
-0.002471232 -0.13337071 0.0074092536 -0.012488011 -0.097594954 -0.11415948 0.06563756 0.0639104
-0.08417809 -0.10994359 0.02140632 -0.100485966 -0.105483346 -0.13043788 0.032068525 -0.096011795
-0.0062653385 0.05800242 -0.06384886 -0.06100368 -0.06610002 -0.09468484 -0.18076263 -0.019240113
0.052889284 -0.046997063 -0.04574759 0.0018547464 0.05028573 0.113409735 0.034183126 -0.07695283
-0.017072722 -0.10393646 -0.08385675 0.01733161 -0.120795436 -0.16920172 -0.11208832 -0.11112447
0.09772297 0.021873957 0.08375181 0.05391846 -0.042858627 -0.13949002 -0.1520525 0.012726324
0.070384264 0.002123715 -0.0021032288 0.15009062 0.019650212 0.064983346 -0.023964493 -0.039255355
0.17790979 -0.018072028 -0.04964207 0.033683196 -0.118528046 0.010368445 -0.044301156 0.02010835
-0.05172596 0.116044715 -0.06853937 0.028252533 0.11580109 0.059301384 -0.06801464 0.0042535863
0.0080075385 0.059508912 0.06754004 0.1012378 -0.19615251 -0.15613578 -0.09452075 -0.025277948
-0.052129265 0.02009561 0.00532808 0.08923302 0.07680288 0.08501738 0.10827777 0.04180749
0.046882536 -0.07033013 -0.015995909 -0.123321295 -0.0020017507 0.018686013 0.10421688 0.040477093
-0.021363763 0.050050642 -0.081833854 -0.053665508 0.09573961 0.15511186 -0.115193285 -0.11808379
-0.12489506 -0.11469803 -0.015187673 0.002284354 0.06890851 -0.115894064 0.066055246 -0.14510477
-0.037681006 -0.12134786 -0.07363177 -0.06698051 0.038252812 -0.06420691 0.10777515 -0.03675025
-0.05934329 0.0873638 0.10190061 -0.018160822 -0.040405102 -0.07686007 -0.1452415 -0.05951416
-0.16634624 -0.112831615 -0.005928363 -0.17323375 -0.003345771 -0.11179435 -0.056911584 -0.055774827
0.13122065 -0.011399202 -0.025206504 0.04673683 -0.12173308 -0.11033382 -0.07293543 -0.042841513
-0.021705987 -0.032569397 0.092253536 -0.069212586 -0.03319875 0.07477708 -0.11486727 0.103179075
-0.0079751685 0.097165324 -0.045784906 0.07504585 0.039510842 0.110099435 0.06552916 -0.09752855
0.03030513 0.09739842 -0.023163665 -0.013705525 -0.07297695 -0.10794488 0.06923242 0.037158903
0.0010371641 0.09306866 0.020349298 0.07879369 -0.14039704 -0.0010835791 0.09420343 0.09999097
0.039562482 0.055833727 0.012700172 0.05966177 0.045892674 0.052320275 0.15916047 0.1582013
0.03575926 -0.14334355 -0.13194692 -0.026279349 0.116522394 0.0041151782 0.021071099 0.14646617
-0.067128845 0.0067433054 -0.025238745 -0.100713015 -0.057820395 0.120738514 -0.070613265 -0.06060615
-0.13235514 -0.15434161 -0.087366715 -0.0787747 -0.05116766 0.017673343 -0.096624196 0.061796136

conv_2.conv.0.bias f4 [24]
00000000: 1152 953d 9253 b8bd d8b0 c03d 68be 033e
00000010: eb5a aebd 4885 90bd 065e 0dbe cfea 69bd
00000020: c3c3 cfbd c20b f33d 3a2d a2bd a7d6 3cbd
00000030: 3605 e9bd 37c0 a23d 8476 bf3d 9fef b7bd
00000040: 50d0 b2bd 95e6 683d 3f9e 643d c888 933c
00000050: 7bde d1bb ef92 f33c eacf 8b3d 9ac3 b6bd
0.072910435 -0.09000315 0.0940873 0.12865603 -0.08513435 -0.070566714 -0.13805398 -0.057108697
-0.101447605 0.11867477 -0.079187825 -0.046103146 -0.11377947 0.07946818 0.09348777 -0.08981251
-0.08731139 0.056860525 0.055814978 0.018009558 -0.0064046956 0.02973315 0.06826766 -0.08924027

conv_2.conv.1.weight f4 [24]
00000000: 6451 a63f fb69 9a3f 462f a63f 36cc 9b3f
00000010: ef57 9e3f e072 8e3f 4160 9f3f 2e23 8f3f
00000020: e3ca 9b3f 874a 903f 8c89 a73f 2d34 a53f
00000030: 6d17 8d3f 8b8c 9d3f 473a a43f 3f7a 963f
00000040: 9c86 903f 143e ae3f 0d54 9f3f 6579 973f
00000050: 3686 a93f 8ca3 a13f 5d6e 9d3f d829 ad3f
1.2993588 1.2063593 1.2983177 1.2171695 1.2370585 1.1128807 1.2451249 1.1182611
1.2171291 1.1272744 1.3088851 1.2906548 1.1022774 1.2308515 1.2830285 1.1756057
1.129108 1.3612695 1.2447525 1.1833922 1.3244083 1.2628036 1.2299305 1.3528395

conv_2.conv.1.bias f4 [24]
00000000: 8998 413e acec 263d ace3 3d3e 0daa 213d
00000010: e30c 2f3e 17bb ed3c bf36 3d3e 26d6 19bc
00000020: cebd 1c3e 2847 033d 2a81 4a3e 7689 483e
00000030: 8cd4 593c 9b04 273e 30ca 3a3e 595c 023d
00000040: f1ef eabb 8d36 263e 65dd 393e 28b3 d13d
00000050: 507e 393e 5d75 363e afb4 513d 9e13 2b3e
0.18905844 0.04075305 0.18543881 0.039468814 0.1709476 0.029019875 0.18477915 -0.009389436
0.1530678 0.03205028 0.19775835 0.19583687 0.013295304 0.1631035 0.18241191 0.03182635
-0.0071697165 0.16231747 0.18150862 0.102392495 0.1811459 0.17818208 0.051197704 0.16706702

conv_2.conv.1.running_mean f4 [24]
00000000: d24c 153f 2ebd aebf 2d09 de3e aeac 87bf
00000010: ac91 1c3f af2f 3cbf e244 043f b0a3 39bf
00000020: 8a61 c03e 817a 45bf 77e3 963f 14d1 263f
00000030: 139a a4bf c5b1 e53e a7be 0e3f 23c7 ccbf
00000040: cacd 87bf 57ab 9d3e 9fcd 1d3f a889 833f
00000050: 9bc0 163f 03d1 243f 355c 48bf 8448 623e
0.58320343 -1.3651483 0.43366376 -1.0599573 0.6115978 -0.7351026 0.51667607 -0.7251539
0.37574416 -0.7714005 1.1788167 0.6516278 -1.285952 0.4486219 0.5575966 -1.5998272
-1.0609677 0.30794784 0.6164188 1.0276384 0.5888764 0.64381427 -0.78265697 0.22097975

conv_2.conv.1.running_var f4 [24]
00000000: 1f03 963d 00d8 033e d645 8a3d 6672 ea3d
00000010: f85e c43d 54cd a43d 6d7e 993d 82cb 4f3d
00000020: 6c44 683d ac06 cd3d 2105 e83d 19cf d63d
00000030: c240 0a3e 19f0 9c3d 0906 893d 1016 123e
00000040: 75cb dc3d 9f72 573e aeb1 bc3d 3291 0b3e
00000050: 556c 1a3e 012c bb3d b632 c73d 04fc 003e
0.07324814 0.12875366 0.067516014 0.11447601 0.09588426 0.08046976 0.07494817 0.05073119
0.056705877 0.10011038 0.11329103 0.104887195 0.13501266 0.076629825 0.06690604 0.14266229
0.10780994 0.21039818 0.09213577 0.13629606 0.15080388 0.091392525 0.09726469 0.12596136

flaten.conv.0.weight f4 [1, 24, 1, 1]
00000000: ebaf 62be 09bc 8f3e 9b11 99be b5cc 733e
00000010: 6834 92be db89 133e 7d25 89be f84f 973e
00000020: ad30 bcbe d190 9e3e 4d08 66be 0929 47be
00000030: b097 583e b9e3 a2be 2d61 aabe 2899 673e
00000040: 21a1 273e 7ecb 80be 6189 9bbe cc33 afbe
00000050: 8d8b 7abe 4c33 7ebe 1517 6d3e 38b9 81be
-0.2213742 0.28073147 -0.29896244 0.23808558 -0.28555608 0.14408056 -0.26786414 0.295532
-0.36755887 0.3096986 -0.22464104 -0.19449247 0.21151614 -0.31814364 -0.33277264 0.22617018
0.1637006 -0.25155252 -0.3037825 -0.34219205 -0.24467297 -0.24824256 0.23153336 -0.25336623
