image_change_detection/change_detector/SAR_model/model/checkpoints/checkpoints_DCP5_val_0.089754.pth (torch, 12190 bytes, 13 tensors)

conv_1.conv.0.weight f4 [12, 2, 2, 2]
00000000: f832 3d3e 2c57 96be 7cae 9abe 3165 cebe
00000010: 521d 2e3e 4fd6 ad39 c2b3 833e c435 64bd
00000020: 10da 183e b6e7 2cbe 03bd 563e aeb3 2abe
00000030: 704a b2be 1c01 b9be dd63 5e3e e82e 65be
00000040: 9917 08be b426 983e db63 963e 5a71 47be
00000050: f678 d7ba dfa6 9dbe 88bf b3be 8038 df3d
00000060: b009 73bd 04c0 b7be a434 873b c8a6 293e
00000070: ccf8 02bd b01f 903e a9eb 613e aa35 173e
00000080: 8332 a9be 6a36 963e 4924 b4be 91dc e1ba
00000090: 5576 0f3e 1fda a7be 2542 a93e b05e 0f3e
000000a0: d291 a5be 7610 dcbc be5e 5d3e d395 9ebe
000000b0: b7aa e3bd 0942 c0be 69a6 153e 5098 bfbc
000000c0: ebea 23be 66f5 1bbe 7f36 f43d 4139 61be
000000d0: b7cd 9ebe 0b3e 8dbd a2fa 0dbe fcb6 613e
000000e0: 8b24 c6be 5298 c0bd 36c7 963e 8d10 89be
000000f0: 5075 b63a 9865 36be 6268 a3bc ed32 aabe
00000100: 620e 843e e1d6 cebd 81c6 16be 8233 463e
00000110: 6cc2 92be 494e 403b d667 7a3d 19a4 92be
00000120: 7fe9 6b3e 174b 5a3e 354e 4e3e 9fdc 913e
00000130: a076 82be e29d 70be 796f 87be 6956 8cbe
00000140: b258 973e 72ca 503d a109 c93d 00d6 973e
00000150: af95 1bbe f281 173e 70f3 c2bc 4fc3 d3bd
00000160: edd7 92be a53a 0f3e 0229 50be 61a2 5cbe
00000170: 641e 8f3e 1b81 5abe 8575 243e c9ba ce3d
0.18476474 -0.29363382 -0.30211246 -0.40311578 0.17003372 0.00033156804 0.25723082 -0.055715337
0.14926934 -0.16885266 0.2097054 -0.16670105 -0.34822416 -0.3613366 0.21717782 -0.22381175
-0.13290252 0.29717028 0.2937306 -0.19476834 -0.0016439247 -0.30791375 -0.35107064 0.108994484
-0.05933541 -0.35888684 0.0041261483 0.16567528 -0.031975552 0.28149176 0.22062553 0.14766565
-0.3304635 0.2933839 -0.35183933 -0.0017231872 0.14009984 -0.327836 0.33058277 0.14000964
-0.32337815 -0.026863318 0.21618173 -0.30973682 -0.11116546 -0.3755038 0.14614262 -0.023388058
-0.16007583 -0.15230331 0.11924457 -0.21994497 -0.31016323 -0.068965994 -0.1386514 0.22042459
-0.38699755 -0.09404053 0.2944886 -0.2677044 0.001392046 -0.17812192 -0.019947235 -0.33241978
0.25792223 -0.10099579 -0.1472416 0.19355586 -0.28663957 0.0029343537 0.061134182 -0.28640822
0.2303829 0.21317707 0.20147021 0.28488633 -0.2548113 -0.23497728 -0.26452234 -0.27409676
0.29559857 0.050974317 0.0981629 0.29655457 -0.15193819 0.14795664 -0.02379772 -0.103399865
-0.28680363 0.13987215 -0.20328143 -0.21546318 0.27952874 -0.21338312 0.16060455 0.1009422

conv_1.conv.0.bias f4 [12]
00000000: 2d5e 3d3e e138 98be 3f6d 56bd d0a3 4d3e
00000010: 30b4 ad3e d597 023e 863b 67be c966 87bd
00000020: 11f0 0d3e 5507 513e 48c5 f23d b954 7abd
0.18492956 -0.29730895 -0.05235028 0.20082021 0.33926535 0.12753232 -0.225813 -0.066114016
0.1386111 0.20412953 0.11854035 -0.061115954

conv_1.conv.1.weight f4 [12]
00000000: 43a0 723f b4dd 723f 878c 7e3f c881 703f
00000010: 18e0 723f 56d7 733f 53e1 803f 03ba 833f
00000020: dd6b 813f 4843 883f d9c0 773f 699c 843f
0.9477579 0.9486954 0.9943318 0.9394803 0.9487319 0.9525045 1.0068763 1.0291141
1.0111042 1.0645533 0.9677864 1.0360233

conv_1.conv.1.bias f4 [12]
00000000: 581d 0abd 52cf 14bc 5321 b5bd 18e2 c63d
00000010: 9255 cabd 12a2 8bbd 7187 583d 0ee3 d8bc
00000020: fe43 9fbd cc43 4fbd ca40 113d aed8 00be
-0.03371939 -0.009082632 -0.08844247 0.09711093 -0.098796025 -0.06818022 0.052863542 -0.026475456
-0.0777664 -0.050601766 0.03546218 -0.12582657

conv_1.conv.1.running_mean f4 [12]
00000000: a25a 10c2 38b2 29c2 f8e7 6cc1 0e2f a041
00000010: 572b 2ac1 ae63 59c2 ac99 41c2 47ca 82c2
00000020: 2ce3 82c1 64cb 9440 716d 3742 98f1 a7c1
-36.08851 -42.42404 -14.806633 20.022976 -10.635581 -54.347343 -48.40007 -65.39507
-16.360924 4.649828 45.856876 -20.992966

conv_1.conv.1.running_var f4 [12]
00000000: 8ed5 fd44 f594 3245 950d 5644 c79d 9944
00000010: dc88 8544 b1db fa44 9711 a244 8e37 0b45
00000020: 85f2 2d44 eaca 0645 52fe 4e44 3902 3744
2030.6736 2857.3098 856.2122 1228.9305 1068.2769 2006.8654 1296.5497 2227.4722
695.78937 2156.6821 827.97375 732.0347

conv_2.conv.0.weight f4 [24, 12, 2, 2]
00000000: 52ee 8d3d f254 55bc 5f4c 8cbd 8871 193d
00000010: a393 193e 9b6e a43d 02da a3bd 7536 57bd
00000020: fe7e a53c 10df 0c3b 3dff c53d 0998 1d3e
00000030: 64c6 8a3a 608e 9d3d d16c 123c 0589 1bbc
00000040: 357e 5f3d 5d1a 4abd 9c20 4b3d e3f8 9dbb
00000050: 76c9 acbd 881b ecbc d18b a33d 9031 b6bd
00000060: b9d8 a53d 69a7 e8bd a416 9c3c 9643 5a3d
00000070: 9865 11bc 563d cbbd a27b fe3c 6f90 573d
00000080: 3743 79bd 13f0 043e 5657 9b3d 831d a33d
00000090: c9c3 243e 3dd8 783d bca7 86bd d6d8 203c
000000a0: d148 e0bd b5d2 f0bd ccc9 743d 1a64 f6bc
000000b0: a5c8 bf3c 85f6 2d3e 42d5 f83d 082a d6bc
000000c0: 926f a6bb a042 02be 87d7 c63b 8515 79bc
000000d0: 0fb7 ccbd f4e5 e2bd 604b 6a3d a6d8 8a3d
000000e0: d955 adbd 1290 debd 0c35 f73c f965 d3bd
000000f0: bebd eabd a127 03be 9bc6 f73c d0f0 bfbd
00000100: 96a2 023a ee54 603d d31a 62bd 192e 6cbd
00000110: e3ca 86bd 4d06 c8bd 83b5 3abe d38e 86bc
00000120: f042 673d ffe1 39bd e902 0abd 6cab 0f3c
00000130: cb24 5b3d 72c0 e93d e85b e03c 9a07 a2bd
00000140: 6cab 2cbc 261c d2bd 7c97 97bd 7e75 a63c
00000150: 0f5f 02be ddbc 31be 6352 ebbd b812 f4bd
00000160: 2d23 bf3d 5e4f bb3c feb6 a73d 63f6 453d
00000170: b3f0 f9bc b67c 13be 50a7 15be 9ee0 603c
00000180: e40a ae3d 7d43 633b ce65 8ebb f495 193e
00000190: 42e5 493c a93f 843d 8092 bbbc d518 10bd
000001a0: 4fb5 343e dd12 4abc c212 5dbd 9f13 0a3d
000001b0: 3ee8 e2bd 68d1 173c dc52 33bd 5f20 443c
000001c0: 0cb3 50bd 35b7 003e c259 83bd 0d41 e13c
000001d0: 6d2f ec3d 3241 6e3d 5d5b 8cbd ae0a 233c
000001e0: 1d95 1c3c 17dd 5e3d 4f7b 7c3d 160d d83d
000001f0: 1729 43be 8436 1abe d002 bfbd 8dea 99bc
00000200: 2ef9 4cbd 3b1a c03c aaed 7d3b 6ec2 b63d
00000210: e16e 983d 7ffd a73d eb48 de3d 173d 163d
00000220: beac 603d af81 8ebd 4d65 87bc c8df 06be
00000230: 5722 fa3a 2aa7 be3c 69a3 db3d d17c 3a3d
00000240: 3482 69bc 8772 6c3d 4859 a6bd 10ae 2dbd
00000250: 3a47 bb3d 469e 1f3e 05f7 04be d8fc eebd
00000260: 9caa f2bd 67bf e5bd 8104 85bc 01a0 bf3b
00000270: b68d 863d 7302 efbd 2dbc 813d 23ea 0ebe
00000280: 586a c3bc e736 04be bff7 98bd b12b 92bd
00000290: 7322 043d 983c 8abd 7533 d93d 4ceb 19bd
000002a0: fe2a 76bd d036 b73d 8513 d13d 0eef 8dbc
000002b0: 4ca0 23bd 6ae4 9abd 8f73 11be 0040 69bd
000002c0: 8793 31be b6f5 e6bd bbd9 4939 85b7 32be
000002d0: 7949 c73a 8c6a e0bd 694d 86bd 61aa 62bd
000002e0: f786 073e d23b 72bc 264e fbbc bcf7 663d
000002f0: 77f5 e4bd 404a e9bd ff45 87bd 40c5 21bd
00000300: fb04 d4bc 61c1 17bd 5d65 b33d b964 99bd
00000310: 71da 12bd b41d 9c3d 201f eabd 6ce1 ce3d
00000320: f4cd cab9 a077 cc3d 627b 5bbd 2dc5 873d
00000330: 57ab 1a3d f73f de3d 8092 8d3d ff70 c9bd
00000340: fc71 eb3c 089c d93d c03d c0bc ede4 05bc
00000350: f1d2 92bd 2faa dbbd 35ef 803d 9df7 033d
00000360: 74da 153c 02da c23d acaa d63c 146e 9c3d
00000370: 3fc6 09be 964e c8ba d521 b93d 315e c03d
00000380: cf9a 323d 628b 5f3d 12ca 0e3c 3ef8 6d3d
00000390: 0605 3d3d bde7 553d f5d2 1e3e e8f0 1a3e
000003a0: 9a62 1b3d af36 16be 9684 0cbe e8e3 d0bc
000003b0: 2364 ea3d a8fb 943a d06c a83c af02 193e
000003c0: 49ff 78bd 83b5 343c 3bfb f2bc d0f7 c2bd
000003d0: 0a12 7fbd 1079 f73d ee73 95bd 606f 84bd
000003e0: 8759 08be dd7f 13be 3a3c a1bd f49e 98bd
000003f0: 4fdc 45bd b080 8d3c 77e4 c2bd d76f 833d
0.069302216 -0.013020741 -0.06850504 0.037461787 0.14997725 0.08028909 -0.08000566 -0.05254217
0.020202156 0.002149526 0.096678235 0.15390028 0.001058769 0.076931715 0.008937077 -0.009493117
0.05456372 -0.04934155 0.049591646 -0.0048209294 -0.08436863 -0.028821722 0.07985652 -0.08896172
0.08097977 -0.11360056 0.019053765 0.05328711 -0.0088743195 -0.09923808 0.031064812 0.052627977
-0.060855117 0.12982206 0.075850174 0.07964613 0.16090311 0.060753096 -0.065749615 0.009817323
-0.109513886 -0.11758939 0.05976276 -0.030077029 0.023411104 0.16988571 0.12150051 -0.026143089
-0.005079218 -0.12720728 0.0060681733 -0.015202885 -0.09995853 -0.11079016 0.05720079 0.06779604
-0.0846364 -0.10867323 0.030176662 -0.10322184 -0.11461972 -0.12808086 0.03024607 -0.09372103
0.00049833336 0.054768495 -0.055201363 -0.05766115 -0.06581666 -0.09766827 -0.18233304 -0.016425526
0.05646032 -0.045381542 -0.03369418 0.0087688975 0.053501885 0.11413659 0.027387574 -0.07911606
-0.010538917 -0.10259275 -0.0740194 0.020319697 -0.12731574 -0.17357202 -0.114903234 -0.11917633
0.09332881 0.022864994 0.081892 0.048330676 -0.030510282 -0.14403042 -0.14614606 0.013725428
0.08498171 0.0034677677 -0.004345632 0.14998609 0.012322726 0.06457455 -0.022897005 -0.03517993
0.17647289 -0.012333599 -0.053972967 0.03371012 -0.11079453 0.009266235 -0.043780193 0.0119706085
-0.050952002 0.12569888 -0.06413604 0.027496839 0.11532483 0.058167644 -0.06853364 0.009951277
0.009557036 0.054410066 0.061641034 0.10549371 -0.19058643 -0.15059859 -0.09326708 -0.0187886
-0.050042324 0.023450008 0.0038746395 0.08923803 0.074430235 0.082026474 0.10853752 0.036679354
0.05485224 -0.06958329 -0.016527796 -0.13171303 0.001908372 0.02327307 0.107245274 0.04552919
-0.014252234 0.05772641 -0.08122498 -0.042402327 0.09144445 0.1558772 -0.12984855 -0.1166932
-0.118489474 -0.11218148 -0.0162375 0.0058479314 0.06569998 -0.11670389 0.0633472 -0.13956504
-0.02385442 -0.12911569 -0.07469129 -0.0713724 0.032259416 -0.067498386 0.10605518 -0.037577912
-0.060099594 0.089460015 0.10208801 -0.017325904 -0.039947793 -0.07563098 -0.14204238 -0.0569458
-0.17341433 -0.112773344 0.00019249965 -0.1745282 0.0015204392 -0.10957822 -0.065577336 -0.055338267
0.13235079 -0.01478477 -0.030676913 0.0563886 -0.11179631 -0.11391115 -0.066051476 -0.039494753
-0.025881281 -0.037049655 0.08759568 -0.074899144 -0.035852853 0.07622853 -0.11431718 0.101015896
-0.0003868189 0.09983754 -0.053584464 0.06629405 0.03776106 0.10852044 0.06912708 -0.098360054
0.028740875 0.10625464 -0.023466945 -0.008172256 -0.0716914 -0.10725819 0.06295625 0.032218564
0.009146322 0.09514238 0.02620443 0.07638183 -0.13454531 -0.001528221 0.09039656 0.093929656
0.04360467 0.054576285 0.0087151695 0.05809807 0.04614737 0.052222956 0.15510161 0.15130961
0.03793583 -0.14669298 -0.13722453 -0.0254993 0.11444881 0.0011366503 0.020559698 0.1494243
-0.060790334 0.011029604 -0.029660812 -0.09519923 -0.062273063 0.12083638 -0.072975025 -0.064665556
-0.13315402 -0.14404245 -0.078728154 -0.07452193 -0.048305806 0.017273277 -0.095162325 0.06417816

conv_2.conv.0.bias f4 [24]
00000000: 3e6a 983d e2fa b5bd 9920 c13d 7a39 053e
00000010: 8f30 afbd ac6b 93bd 82c6 0cbe 7f0b 60bd
00000020: 4c88 cfbd dd7f f43d 3986 a3bd 18cc 40bd
00000030: 7b62 e7bd 4854 a23d 0ddf c03d ba1b b6bd
00000040: 94c9 b2bd 1cf0 683d 8f90 623d 15b6 943c
00000050: d3ca f0bb f516 f13c 81ff 8b3d b3ec b3bd
0.07442139 -0.08885743 0.09430046 0.13010207 -0.08554184 -0.07198271 -0.137476 -0.054698464
-0.101334184 0.119384505 -0.07984585 -0.04706964 -0.112980805 0.079262316 0.094175436 -0.08892007
-0.08729854 0.05686961 0.055313643 0.01815323 -0.0073483973 0.029429892 0.06835843 -0.08785381

conv_2.conv.1.weight f4 [24]
00000000: 694b a13f b2e0 963f 02db a03f becb 973f
00000010: bcef 993f 7c9c 8a3f 0f47 9b3f 3511 8b3f
00000020: 3be3 973f b2a0 8c3f 89f5 a13f 5ef3 a03f
00000030: 97cb 893f 293d 993f 53ea 9f3f e693 923f
00000040: 2cb7 8c3f f494 a73f ee14 9b3f 1b5d 943f
00000050: cf09 a43f 8691 9d3f 2371 993f 4e3d a73f
1.2601138 1.1787322 1.2566836 1.1859052 1.2026286 1.0829005 1.213106 1.0864626
1.186622 1.098654 1.2653056 1.257427 1.0765256 1.197179 1.2493385 1.1451385
1.09934 1.3092332 1.2115762 1.1590914 1.2815493 1.2310035 1.1987652 1.3065584

conv_2.conv.1.bias f4 [24]
00000000: 1033 313e a318 0c3d 9109 2e3e 717b 033d
00000010: 5e83 1e3e 3fef ac3c e2c8 2b3e 1652 89bc
00000020: 1e2f 103e 1ef4 c63c cd14 393e 8e26 3a3e
00000030: 060f d33b 57c8 193e 7d94 2c3e 52f9 cb3c
00000040: 9bab 6fbc db80 1a3e e5e1 293e e033 b93d
00000050: 1229 2d3e 04ed 253e 744e 2f3d 7347 1e3e
0.17304635 0.034203183 0.16995837 0.032100145 0.154798 0.021110175 0.1677585 -0.016762774
0.14080474 0.024286326 0.18074341 0.1817877 0.006441 0.1501783 0.16853519 0.024899159
-0.014628316 0.15088217 0.16590078 0.090430975 0.16910198 0.16203696 0.042799428 0.15456943

conv_2.conv.1.running_mean f4 [24]
00000000: d408 153f 3746 acbf 84a2 f03e 8720 84bf
00000010: cd09 153f 3a8c 2ebf ef7a de3e 88b1 32bf
00000020: 2282 bb3e 6df0 48bf e887 923f e772 273f
00000030: 568f a0bf 092c db3e 4006 103f 57f2 c3bf
00000040: 3818 7abf efbf a23e 3245 1d3f e59d 7a3f
00000050: 6150 0c3f 238b 1c3f 027b 36bf c281 6a3e
0.58216596 -1.3458928 0.4699899 -1.0322427 0.5821808 -0.6818272 0.43453166 -0.6980214
0.3662272 -0.7849186 1.1447725 0.654097 -1.2543743 0.42807034 0.56259537 -1.5308331
-0.97693205 0.3178706 0.6143371 0.9789718 0.5481015 0.61149806 -0.71281445 0.22901061

conv_2.conv.1.running_var f4 [24]
00000000: a4ce 973d 46f4 053e 977d 923d b0d6 df3d
00000010: 22aa b03d 6ede 933d de7b 853d e628 4b3d
00000020: 4a76 493d c3e2 cf3d 2de2 fc3d 9b44 d33d
00000030: ab59 133e 697e 9c3d 09ca 713d 4721 0c3e
00000040: bc1a d53d 32ed 713e 9bf0 b13d b425 003e
00000050: d874 243e c4bf b83d 935e ba3d b684 023e
0.074124604 0.13081464 0.071528606 0.1092962 0.086262 0.072201595 0.065177664 0.04959955
0.049185075 0.10150673 0.12347827 0.1031582 0.14389674 0.07641298 0.059030566 0.1368457
0.1040549 0.23625639 0.0868847 0.12514383 0.16060197 0.090209514 0.0910007 0.12745938

flaten.conv.0.weight f4 [1, 24, 1, 1]
00000000: a64e 43be 4fd4 823e 43c5 87be 2b3f 573e
00000010: bbaf 83be 9c3d f33d 43a2 76be bb23 883e
00000020: ffa6 aebe 95f0 903e 726c 44be 6466 2dbe
00000030: e08e 403e 8983 94be 49f9 9bbe 56dc 4b3e
00000040: cc22 0d3e 0920 59be 7f49 8dbe 6403 a4be
00000050: e28d 58be c06b 63be 6503 513e a5b0 5ebe
-0.19072971 0.25552604 -0.26517686 0.2102019 -0.2572001 0.118769854 -0.24085335 0.2658976
-0.34111783 0.2830855 -0.19181994 -0.1693359 0.18804502 -0.29006603 -0.30463627 0.1990827
0.13782805 -0.21203627 -0.27595136 -0.32033837 -0.21147874 -0.22209072 0.20411451 -0.21747072
