image_change_detection/change_detector/SAR_model/model/checkpoints/checkpoints_DCP8_val_0.005601.pth (torch, 11546 bytes, 13 tensors)

conv_1.conv.0.weight f4 [12, 2, 2, 2]
0	0x3df65321	0.12027574
1	0xbe3ba265	-0.18323667
2	0xbed8bda0	-0.42332172
3	0xbe2345d9	-0.15944614
4	0xbd96ed55	-0.07369486
5	0x3db84f44	0.08999494
6	0x3d022385	0.031772155
7	0x3e3c4ce7	0.18388711
8	0x3e9d54fb	0.30728897
9	0x3d85b514	0.065286785
10	0x3e18b56e	0.1491296
11	0x3e371e76	0.17882714
12	0xbeb78906	-0.35846728
13	0xbeb5afda	-0.35485727
14	0xbea50c87	-0.3223612
15	0xbdd68b8e	-0.10475837
16	0xbed7af63	-0.42125997
17	0xbe75688c	-0.23965663
18	0xba202448	-0.0006108922
19	0xbc181813	-0.0092830835
20	0xbe5ef036	-0.2177132
21	0x3c588ad8	0.013216697
22	0x3cce271e	0.025165137
23	0x3e2aa822	0.166657
24	0xbe2304a7	-0.15919743
25	0x3e33af75	0.175474
26	0xbd851c60	-0.06499553
27	0x3eb1a5e7	0.34696886
28	0x3d53d0a2	0.05171264
29	0xbdec3f92	-0.115355626
30	0x3ec163a1	0.37771323
31	0x3da753d9	0.081702895
32	0x3e289f41	0.16467
33	0x3e667dce	0.22508928
34	0x3e9980ff	0.2998123
35	0xbcc89dcb	-0.024489304
36	0x3ea1c103	0.3159257
37	0xbe411706	-0.18856439
38	0xbd703796	-0.05864676
39	0x3dca9f7d	0.09893701
40	0xbd6fdf88	-0.058562785
41	0xbed0c00d	-0.40771523
42	0x3e1c3cf3	0.15257625
43	0x3d94dd30	0.07268751
44	0x3dcae7b0	0.09907472
45	0xbeb0993a	-0.34491903
46	0xbe62dd92	-0.22154835
47	0x3dfaf7ae	0.122542724
48	0x3daf3676	0.085553095
49	0xbe417c57	-0.18895088
50	0xbe02c0f3	-0.12768917
51	0xbe0c3edf	-0.13695858
52	0x3b749049	0.0037317446
53	0xbecc11d1	-0.39857343
54	0x3cf21ec3	0.029555684
55	0x3df49996	0.11943357
56	0xbe5c81c6	-0.2153388
57	0x3dfb3c0c	0.122673124
58	0x3e8dd925	0.2770473
59	0x3e934bb5	0.28768697
60	0xbd9c26aa	-0.07624562
61	0xbc0d17e2	-0.008611651
62	0x3eafaea9	0.34312943
63	0xbe8b5e1e	-0.27220243
64	0x3e4390cb	0.19098203
65	0xbe641bab	-0.2227618
66	0x3df717a4	0.12065056
67	0x3e617c21	0.22020008
68	0xbe76c72a	-0.24099413
69	0xbead97f5	-0.33904997
70	0xbeb95f91	-0.36205724
71	0xbde9e4b0	-0.11420572
72	0x3dc5ef84	0.096648246
73	0x3e78e4d2	0.24306038
74	0xbe03af80	-0.12859917
75	0xbe4fa93b	-0.202794
76	0xbe50f428	-0.20405638
77	0xbe9276f5	-0.28606382
78	0xbed42de0	-0.4144125
79	0xbe9869a9	-0.29768112
80	0x3d7a8cac	0.06116931
81	0x3d527daf	0.051389392
82	0xbe83adc7	-0.2571852
83	0x3e0e622a	0.13904634
84	0xbe5dc4d0	-0.2165711
85	0x3ddeed1a	0.10885067
86	0xbf0aac18	-0.54168844
87	0xbe21b00b	-0.15789811
88	0xbdcdcfcb	-0.10049399
89	0x3c985409	0.018594759
90	0x3e91cd88	0.2847712
91	0xbe49a9a3	-0.19693618
92	0xbe75a94a	-0.2399036
93	0xbedf27d6	-0.4358508
94	0xbe01cd56	-0.12675986
95	0xbd2e648d	-0.04257636

conv_1.conv.0.bias f4 [12]
0	0xbe8238af	-0.2543387
1	0xbe4cdbae	-0.20005676
2	0xbae7ac08	-0.0017675171
3	0xbc6f2332	-0.014595794
4	0xbe454924	-0.19266182
5	0xbe01e48d	-0.12684841
6	0xbc9dc4f3	-0.019258952
7	0xbda2549f	-0.079262964
8	0x3e8a21cf	0.2697892
9	0xbea3bf58	-0.3198192
10	0xbe986db9	-0.29771212
11	0x3eb07c1b	0.34469685

conv_1.conv.1.weight f4 [12]
0	0x3f830cce	1.0238283
1	0x3f780c41	0.968937
2	0x3f809d0c	1.0047927
3	0x3f54c5d2	0.8311435
4	0x3f5bf437	0.8591952
5	0x3f5e6248	0.86868715
6	0x3f88fe07	1.0702523
7	0x3f4e7e48	0.8066144
8	0x3f889ae4	1.0672269
9	0x3f833650	1.025095
10	0x3f8fc875	1.123305
11	0x3f80bcbf	1.0057601

conv_1.conv.1.bias f4 [12]
0	0xbde3f050	-0.1112982
1	0xbebbec12	-0.36703545
2	0xbdb31d89	-0.08745868
3	0xbb8c88dc	-0.004288776
4	0x3e8052d7	0.25063202
5	0xbd9072c9	-0.070531435
6	0xbc0f3666	-0.008740997
7	0x3e29beac	0.16576642
8	0xbe98ea4d	-0.29866257
9	0xbe843326	-0.25820273
10	0xbdec198f	-0.115283124
11	0xbe98ab97	-0.29818413

conv_1.conv.1.running_mean f4 [12]
0	0xc1e4db8c	-28.6072
1	0xc21ab032	-38.672066
2	0xc244902d	-49.140797
3	0x42508edb	52.139507
4	0x42720182	60.501472
5	0xc2308205	-44.126972
6	0xc2361932	-45.524605
7	0x42034382	32.815926
8	0xc26f5d95	-59.84139
9	0xc2ba9949	-93.299385
10	0xc27e8852	-63.633125
11	0xc28200a3	-65.00124

conv_1.conv.1.running_var f4 [12]
0	0x4432900f	714.2509
1	0x4502a5b4	2090.3564
2	0x4500c638	2060.3887
3	0x44e288fd	1812.2809
4	0x44d4a5f8	1701.1865
5	0x44e61cc9	1840.8995
6	0x44b046fd	1410.2184
7	0x44b61b07	1456.8446
8	0x451cdb99	2509.7249
9	0x4589d473	4410.556
10	0x4569a1d9	3738.1155
11	0x45243213	2627.1296

conv_2.conv.0.weight f4 [24, 12, 2, 2]
0	0x3de9486b	0.11390766
1	0x3ca6639a	0.020311166
2	0xbc3bfec4	-0.011474315
3	0x3c419694	0.011815686
4	0xbe22c048	-0.15893662
5	0xbd05bd72	-0.032651372
6	0xbe0ad8ca	-0.13559261
7	0x3dc7e2df	0.09760069
8	0xbd80cff6	-0.062896654
9	0x3d08729a	0.033312418
10	0xbcbb5af4	-0.022870518
11	0x3daf8a0a	0.08571251
12	0xbcaf7ac4	-0.021420844
13	0xbcdbec9f	-0.026846228
14	0xbcf5ef81	-0.03002143
15	0xbc33ba86	-0.010969764
16	0xbd275b34	-0.040858462
17	0xbc3a23c1	-0.011361063
18	0x3d0c2bac	0.034221336
19	0xbd33efca	-0.043929853
20	0x3d4b902d	0.049698044
21	0x3c4a659d	0.012353328
22	0xbcba2a5c	-0.022725277
23	0xbcf1906f	-0.029487817
24	0xbbfa5291	-0.007639237
25	0x3def0589	0.116709776
26	0x3d43a0b2	0.047760673
27	0x3dffaa8b	0.124837
28	0x3bbdeec0	0.0057962835
29	0xbb535ce4	-0.0032251412
30	0x3d31b65e	0.04338681
31	0x3d00a398	0.031406015
32	0x3d628867	0.055305865
33	0x3d5a457f	0.053288933
34	0xbc7de965	-0.01549754
35	0xbd7081ee	-0.05871766
36	0x3c16c126	0.009201324
37	0xbe21ef61	-0.15813972
38	0x3d10a86a	0.035316862
39	0xbe121baf	-0.14268373
40	0x3e2e11ca	0.16998973
41	0xbce69a46	-0.028149735
42	0x3e53c20e	0.20679495
43	0xbc9409cc	-0.018071078
44	0x3d3ce3a0	0.046115518
45	0x3e20ee96	0.15716013
46	0xbca12a24	-0.019673415
47	0xbda521b7	-0.08063071
48	0x3a181e79	0.00058028806
49	0x3de22baf	0.11043488
50	0xbcfc07fe	-0.03076553
51	0xbdb4da7b	-0.08830734
52	0xbe010cbc	-0.12602514
53	0xbce0d85f	-0.027446924
54	0xbe20c8c5	-0.15701587
55	0x3d5013fd	0.050800312
56	0x3dc676c2	0.0969062
57	0xbd20c382	-0.03924895
58	0x3e217e97	0.15770946
59	0x3d400826	0.04688277
60	0x3cd9b2f1	0.026574584
61	0x3d8c445e	0.068489775
62	0x3ca18988	0.0197189
63	0x3cbad774	0.022807814
64	0xbc34900f	-0.011020674
65	0xbd821bb9	-0.06352944
66	0xbc0d8635	-0.0086379545
67	0xbdaf8b01	-0.08571435
68	0x3d22aab0	0.03971356
69	0xbdee066c	-0.116223186
70	0xbdff9ea7	-0.124814324
71	0x3c00182e	0.007818265
72	0xbdd7796b	-0.105212055
73	0x3dc020fa	0.0938129
74	0x3d5f139d	0.054462064
75	0x3dec8c4a	0.115501955
76	0x3d402782	0.046912678
77	0xbd9e144b	-0.07718714
78	0x3c660acf	0.014040663
79	0xbdd80932	-0.10548629
80	0xbdf84fd2	-0.121245995
81	0xbdad6c45	-0.084679164
82	0x3d3e8371	0.04651207
83	0xbe0fa240	-0.14026737
84	0x3c06c7a6	0.008226311
85	0xbe2fb090	-0.17157197
86	0x3c5bd536	0.013417533
87	0xbda57926	-0.08079748
88	0x3cf716e8	0.03016229
89	0xbe0b0879	-0.13577451
90	0xbd242790	-0.040076792
91	0x3cd5df6c	0.026107512
92	0xbd102953	-0.03519566
93	0x3d8b013c	0.06787345
94	0xbd44abbc	-0.04801534
95	0x3c1ed93a	0.009695346
96	0xbd94f3ae	-0.07273041
97	0xbc9351fb	-0.017983427
98	0xbe003fce	-0.1252434
99	0x3d3633ca	0.044482984
100	0xbe18408a	-0.1486837
101	0x3d89f48d	0.067360975
102	0xbd94d70b	-0.07267579
103	0xbda42da2	-0.08016516
104	0xbc9a19a0	-0.018811047
105	0x3e323687	0.17403613
106	0xbda5ce5a	-0.08095999
107	0xbce996ee	-0.028514352
108	0x3d916b9d	0.07100604
109	0x3b85a765	0.004078793
110	0xbd30a79b	-0.04312859
111	0xbcfbbd4a	-0.030729908
112	0x3cb11556	0.02161662
113	0x3c22f20e	0.009945406
114	0xbcef277c	-0.029193632
115	0x3df46b60	0.11934543
116	0xbd57cae4	-0.052683726
117	0xbdc91e53	-0.09820237
118	0x3d6ae4a0	0.05734694
119	0xbdb36675	-0.087597765
120	0xbd0a787e	-0.033806317
121	0xbd3b1a96	-0.04567965
122	0x3e2ea522	0.1705518
123	0x3d8453fe	0.06461333
124	0xbc81f7ed	-0.01586529
125	0xbd0d8515	-0.034550745
126	0xbd2db53f	-0.042409178
127	0xbd738079	-0.059448693
128	0x3deb7ab1	0.11498011
129	0xbe15333a	-0.14570323
130	0xbccd42f3	-0.025056338
131	0xbd217157	-0.03941473
132	0x3c7cc166	0.015426969
133	0x3da23684	0.07920554
134	0xbdeb9fbe	-0.11505078
135	0xbbb27415	-0.005445967
136	0x3c0807d5	0.008302649
137	0xbd923e4d	-0.07140789
138	0xbe3fe0cd	-0.18738098
139	0xbdad6c9d	-0.08467982
140	0x3d333937	0.043755736
141	0x3d6e3128	0.058152348
142	0x3dacaa35	0.08430902
143	0x3db98502	0.09058572
144	0xbdfd4ed4	-0.12368551
145	0x3d90faa9	0.0707906
146	0xbe2c76e5	-0.1684223
147	0xbe01a429	-0.12660278
148	0xbd467928	-0.048455387
149	0xbe277918	-0.16354787
150	0x3c59f47f	0.013302921
151	0x3d39d7db	0.04537187
152	0xbcd5e732	-0.02611122
153	0xbdb46f2f	-0.08810269
154	0xbb22bb89	-0.0024831018
155	0x3d932a1b	0.07185765
156	0xbc4dbc6d	-0.012557131
157	0xbd7299e9	-0.05922881
158	0x3dbdda12	0.09270109
159	0x3be77615	0.007063637
160	0xbc15e57d	-0.009148953
161	0xbd13611d	-0.035981286
162	0xbd1ea4f0	-0.038731515
163	0x3da9d9aa	0.08293469
164	0xbd3c1554	-0.045918778
165	0xbd1095a4	-0.03529896
166	0xbdaa0937	-0.08302539
167	0xbbceec5f	-0.0063147987
168	0x3d45c68f	0.048285063
169	0xbe2b81b2	-0.16748694
170	0x3d36c462	0.04462088
171	0x3de98c0d	0.11403666
172	0x3d6fcba2	0.05854381
173	0x3b8c46e9	0.004280914
174	0x3d436114	0.047700003
175	0x3cd0807c	0.025451891
176	0xbcdc984d	-0.026928091
177	0x3df46d36	0.11934893
178	0x3c224b16	0.009905597
179	0xbdee81a9	-0.116458245
180	0xbd337022	-0.04380811
181	0xbe20b435	-0.15693744
182	0xbdbafa74	-0.091298014
183	0xbe204ec2	-0.15655044
184	0xbd1482f4	-0.0362577
185	0xbdabc87b	-0.08387848
186	0xbe0d4ffc	-0.13800043
187	0xbd69ed7e	-0.057111256
188	0x3d58c37b	0.0529208
189	0x3d35f17c	0.04441975
190	0xbd3a39fa	-0.045465447
191	0xbc981293	-0.018563544
192	0xbdaf54af	-0.08561074
193	0xbcce5456	-0.025186699
194	0x3da465ad	0.080272056
195	0xbd89915b	-0.067171775
196	0xbd96031c	-0.07324812
197	0xbade9e2b	-0.0016984394
198	0xbda24363	-0.07923009
199	0xbe082a91	-0.13297488
200	0x3ddce54c	0.107859224
201	0xbcd30d91	-0.025763305
202	0xbdb4c474	-0.08826533
203	0xbdb6b073	-0.08920374
204	0x3be6feb3	0.0070494055
205	0x3d10929f	0.03529608
206	0x3d2e85da	0.04260812
207	0xbd0398c0	-0.032128096
208	0x3cc01a1d	0.023449952
209	0x3d76f61d	0.060293306
210	0xbe1d17a1	-0.15341045
211	0x3df82473	0.12116327
212	0xbcfaa160	-0.030594528
213	0xbd704c94	-0.05866678
214	0xbc1f3f4a	-0.009719679
215	0x3d8b14f9	0.067911096
216	0xbddbbd08	-0.10729414
217	0x3bee26fc	0.007267831
218	0xbd13943b	-0.036030035
219	0xbc96f8af	-0.018429128
220	0xbcbdbdc8	-0.023161784
221	0x3c28b97a	0.010298127
222	0x3dbaf334	0.091284186
223	0xbdee796c	-0.11644253
224	0x3d3ce376	0.04611536
225	0x3d7e45ac	0.062078163
226	0x3dcf19ab	0.10112318
227	0x3cde97c1	0.027171971
228	0xbd6c511e	-0.057694547
229	0x3d7b4f4a	0.061354913
230	0x3c1d1dc6	0.009589618
231	0x3b21a3ec	0.0024664355
232	0xbd321e20	-0.04348576
233	0xbe01d591	-0.12679125
234	0x3df9cb85	0.121970214
235	0x3dcfb06d	0.101410724
236	0x3db9690e	0.09053241
237	0x3d01a5db	0.031652313
238	0xbd9d120a	-0.07669456
239	0xbd6c39c4	-0.057672277
240	0xbd6bf8c7	-0.0576103
241	0x3e04384c	0.129121
242	0x3ce5a431	0.028032394
243	0x3e27eb5f	0.1639838
244	0x3b956516	0.0045591695
245	0xbd9872e6	-0.0744379
246	0x3c9fe3dd	0.019517833
247	0xbce7bdc8	-0.028288737
248	0xbd9805ed	-0.07423005
249	0x3d58798f	0.052850302
250	0x3dac7cab	0.08422216
251	0x3e31cb55	0.17362721
252	0x3cc05ef0	0.02348277
253	0x3dfd716c	0.12375149
254	0x3cd5c77a	0.026096094
255	0x3db81090	0.08987534

conv_2.conv.0.bias f4 [24]
0	0x3d538488	0.051640064
1	0x3b572765	0.0032829877
2	0xbdde97db	-0.10868808
3	0xbdfdcece	-0.123929605
4	0xbc951319	-0.018197583
5	0x3e0bcc8d	0.13652249
6	0xbc9aeb8d	-0.018911147
7	0x3dcc5955	0.09977976
8	0xbe0c39a9	-0.1369387
9	0x3deca843	0.11555531
10	0x3db68a33	0.08913078
11	0x3c9c901c	0.019111685
12	0x3d940f0c	0.072294325
13	0x3d375df6	0.044767343
14	0x3b648c80	0.0034873784
15	0x3d40a30f	0.047030505
16	0x3dcab0a9	0.098969765
17	0x3d896796	0.067092106
18	0x3df26cd5	0.11837164
19	0x3e08577a	0.1331462
20	0xbca71738	-0.020396814
21	0x3cf3e4b7	0.029772146
22	0x3db453dd	0.08805058
23	0xbda021dd	-0.07818959

conv_2.conv.1.weight f4 [24]
0	0x3fc151b8	1.5103064
1	0x3f7454d2	0.95441926
2	0x3fb0e42e	1.3819635
3	0x3fa23eb2	1.2675383
4	0x3f99c812	1.2014182
5	0x3f70e8cc	0.9410522
6	0x3faee75e	1.3664358
7	0x3fb250f1	1.3930951
8	0x3f84ce86	1.0375526
9	0x3facc32d	1.3497063
10	0x3fa92c09	1.3216563
11	0x3f840204	1.0313115
12	0x3f96277f	1.1730803
13	0x3f987ede	1.1913717
14	0x3f8590bb	1.0434793
15	0x3fab75b2	1.3395293
16	0x3fb187c7	1.3869561
17	0x3fc2335d	1.5171925
18	0x3f86ad25	1.052159
19	0x3f8874e0	1.0660667
20	0x3f897964	1.074017
21	0x3fb758f3	1.432402
22	0x3fad8197	1.3555173
23	0x3fac5e29	1.3466235

conv_2.conv.1.bias f4 [24]
0	0x3ebd7416	0.3700263
1	0xbd96ea4c	-0.07368907
2	0x3e8a95a2	0.27067286
3	0x3db5689a	0.08857842
4	0x3dad6ed1	0.08468402
5	0xbdcd6b74	-0.10030261
6	0x3e815c66	0.25265807
7	0x3e9c7f41	0.30565837
8	0xbd07609e	-0.033051126
9	0x3e53bc97	0.2067741
10	0x3e84b563	0.25919637
11	0xbd7ec835	-0.06220265
12	0x3dae48e6	0.08509998
13	0x3dd22d76	0.10262577
14	0xbd1ee6f8	-0.038794488
15	0x3e7c3b3a	0.24631968
16	0x3e6765c4	0.22597414
17	0x3ead1bdf	0.33810326
18	0xbd6d8203	-0.057985317
19	0x3c0247a4	0.007951651
20	0xbd6590dc	-0.05604635
21	0x3e951352	0.29116303
22	0x3e76526d	0.2405488
23	0x3e86bfe5	0.2631828

conv_2.conv.1.running_mean f4 [24]
0	0x3f11b494	0.56916165
1	0xbecbb1b1	-0.39784005
2	0xbf1bfbb4	-0.60930943
3	0xbf709e71	-0.9399176
4	0x3db70fbe	0.089385495
5	0x3e2f85a5	0.17140825
6	0xbf018539	-0.50593907
7	0x3f2f7eca	0.6855284
8	0xbe8c8ab6	-0.27449578
9	0x3e9a9257	0.30189773
10	0x3f130aa1	0.57438093
11	0x3f33a3d6	0.7017187
12	0xbf4bfe1b	-0.7968461
13	0xbe6bd66e	-0.23031017
14	0xbeda561f	-0.4264383
15	0xbee54a3a	-0.44783193
16	0xbf806902	-1.0032046
17	0xbef822e1	-0.4846411
18	0xbdfc08d6	-0.12306373
19	0x3f220838	0.6329379
20	0x3fb17b1b	1.3865694
21	0x3ee8c5e6	0.45463485
22	0xbe8f7e9f	-0.28026292
23	0x3f20d465	0.6282409

conv_2.conv.1.running_var f4 [24]
0	0x3d6b7279	0.057482217
1	0x3da48d2f	0.08034741
2	0x3dae3640	0.08506441
3	0x3df0bff1	0.1175536
4	0x3d113dfb	0.0354595
5	0x3d8a78ec	0.06761345
6	0x3d6f5039	0.058426116
7	0x3dfe726a	0.124241665
8	0x3d20bad8	0.039240688
9	0x3da8463c	0.08216521
10	0x3e1c5788	0.15267766
11	0x3d253c58	0.04034075
12	0x3e0f847a	0.1401538
13	0x3d944f03	0.07241633
14	0x3cd1096e	0.025517192
15	0x3dc2c38b	0.09509953
16	0x3e836f3b	0.256708
17	0x3dd46400	0.10370636
18	0x3d05d24e	0.032671265
19	0x3e8ec137	0.27881786
20	0x3d4b05a1	0.049565915
21	0x3ce2f9b2	0.027706955
22	0x3d89beef	0.06725871
23	0x3e2f54d9	0.1712221

flaten.conv.0.weight f4 [1, 24, 1, 1]
0	0xbe98d9ae	-0.29853576
1	0x3d4a638e	0.04941135
2	0xbee64518	-0.4497459
3	0xbe5d23a1	-0.21595623
4	0xbe3ce3a4	-0.18446213
5	0x3dde3f47	0.10851913
6	0xbeda50e8	-0.42639852
7	0xbeb8238f	-0.3596463
8	0x3de15a98	0.110036075
9	0xbe70e3ed	-0.23524447
10	0xbecedca8	-0.40402722
11	0x3e3876da	0.18014088
12	0xbe498819	-0.19680823
13	0xbe4298b4	-0.19003564
14	0x3e106733	0.14101867
15	0xbed87b67	-0.4228165
16	0xbe8142ae	-0.25246185
17	0xbea673e3	-0.3251029
18	0x3e4dec25	0.20109613
19	0xbe0ce72b	-0.13760059
20	0x3e8a3f6a	0.27001506
21	0xbeb498ab	-0.35272726
22	0xbeebf04e	-0.46081775
23	0xbebad9f6	-0.36494416
