image_change_detection/change_detector/SAR_model/model/checkpoints/checkpoints_DCP9_val_0.005113.pth (torch, 11546 bytes, 13 tensors)

conv_1.conv.0.weight f4 [12, 2, 2, 2]
000000 0e 0e f6 3d 39 df 3a be ab 6d d3 be 41 48 22 be
       0.120143995 -0.18249215 -0.41294608 -0.15847875
000010 e9 b9 88 bd ca 13 c2 3d a2 71 38 3d c5 a0 44 3e
       -0.066760845 0.09476431 0.045030244 0.19201954
000020 4f b1 9c 3e ac 22 8d 3d b2 78 17 3e 61 a5 35 3e
       0.30604026 0.06891379 0.14792135 0.17738868
000030 5f e6 b8 be e0 50 b5 be 91 8f a5 be 5f 59 cf bd
       -0.3611326 -0.35413265 -0.32336095 -0.10124468
000040 17 aa d7 be b4 45 71 be 1c 3d 94 3a ce fe c6 bb
       -0.42121956 -0.23561746 0.0011309716 -0.0060728556
000050 dc ed 64 be 8a ad 2b 3c 52 85 cc 3c b9 03 2a 3e
       -0.22356361 0.010478387 0.024965916 0.16602983
000060 3c 79 24 be 1e 0d 36 3e e2 6d 82 bd 71 b8 b1 3e
       -0.16061872 0.17778441 -0.06368615 0.3471103
000070 36 ca 40 3d c3 34 ec bd 37 0f c1 3e 09 77 a8 3d
       0.047067843 -0.11533501 0.3770692 0.08225829
000080 42 0c 2a 3e 3d 8d 6a 3e 40 57 9a 3e 49 11 6c bc
       0.16606238 0.2290544 0.3014469 -0.014408418
000090 53 59 a1 3e 8e fe 3c be ab 0f 5d bd 6a 74 ce 3d
       0.3151346 -0.1845648 -0.05397002 0.10080798
0000a0 54 63 82 bd f6 f6 d5 be 12 fa 1c 3e aa 29 8a 3d
       -0.063666016 -0.4178998 0.15329769 0.06746228
0000b0 3c ca cd 3d 4c 78 ae be 95 5b 5c be a3 9a f8 3d
       0.10048339 -0.34076154 -0.21519311 0.121388696
0000c0 fb 49 aa 3d 9e db 3c be c5 a1 07 be c5 9e 11 be
       0.08314892 -0.18443152 -0.13245304 -0.14220722
0000d0 75 22 d3 ba 06 ab cb be c7 e5 cf 3c e6 86 ec 3d
       -0.0016108291 -0.39778918 0.025378121 0.11549167
0000e0 17 e8 5d be ca da f6 3d 3d a9 8a 3e 2d 21 91 3e
       -0.21670566 0.120534495 0.27082244 0.28345624
0000f0 e0 d9 97 bd c8 fb 7e bc 6b a8 b0 3e 08 cb 8d be
       -0.07414603 -0.015562959 0.34503493 -0.27693963
000100 b7 8b 43 3e a7 1e 63 be 2b 19 f3 3d 31 fa 60 3e
       0.19096266 -0.22179662 0.11870035 0.2197044
000110 8c ba 75 be 94 da ae be 3a 87 ba be f9 9a ef bd
       -0.23996943 -0.34151137 -0.36431295 -0.116994806
000120 14 d8 c4 3d 6d d6 78 3e 72 4d 01 be de cd 4b be
       0.09611526 0.24300547 -0.126272 -0.19902751
000130 c3 00 57 be 5f 12 95 be 4c ab d4 be 86 5e 9a be
       -0.20996384 -0.2911558 -0.4153694 -0.3015024
000140 89 da 84 3d c5 49 6b 3d 62 4c 80 be d4 da 0f 3e
       0.06486995 0.0574434 -0.25058275 0.1404832
000150 42 83 5f be 7f c9 d7 3d ff 71 0c bf 0a 75 1f be
       -0.21827415 0.10536479 -0.54861444 -0.1557199
000160 98 a6 cc bd 54 e8 96 3c 8f a6 8f 3e 6b 12 44 be
       -0.09992713 0.01842133 0.28056762 -0.19147651
000170 45 0c 7e be a6 47 e1 be b1 f9 04 be a8 a7 39 bd
       -0.24809368 -0.43999976 -0.12985875 -0.045325905

conv_1.conv.0.bias f4 [12]
000000 10 34 82 be 66 da 4c be e4 28 e4 ba 59 3d 6f bc
       -0.25430346 -0.20005187 -0.0017407206 -0.014602029
000010 c2 49 45 be ee e4 01 be 04 b4 9d bc 5e 55 a2 bd
       -0.19266418 -0.12684986 -0.019250877 -0.07926439
000020 82 22 8a 3e 7e bc a3 be a4 70 98 be 31 7b b0 3e
       0.26979452 -0.31979746 -0.29773438 0.34468988

conv_1.conv.1.weight f4 [12]
000000 17 a0 83 3f 99 cb 77 3f 7a 36 80 3f fd 27 54 3f
       1.028323 0.9679504 1.0016625 0.8287352
000010 27 06 5b 3f 06 a9 5d 3f 5e cc 88 3f f2 36 4d 3f
       0.8555626 0.86586034 1.0687368 0.80161965
000020 18 92 88 3f 11 61 82 3f 4a 98 8f 3f de 2a 80 3f
       1.0669584 1.0185872 1.121835 1.0013082

conv_1.conv.1.bias f4 [12]
000000 30 3e e8 bd 21 7f c0 be 9d 65 bf bd a3 8e c7 bb
       -0.11339986 -0.37596992 -0.09345553 -0.0060900017
000010 73 5b 83 3e b0 f0 a4 bd b6 c4 95 bc 78 00 33 3e
       0.25655708 -0.0805372 -0.018282276 0.17480648
000020 36 f8 9f be be c0 8a be bc 01 f4 bd 57 51 a3 be
       -0.31244057 -0.27100176 -0.11914393 -0.31897995

conv_1.conv.1.running_mean f4 [12]
000000 19 52 ba c1 98 6d 17 c2 c8 02 39 c2 82 ab 45 42
       -23.290087 -37.857025 -46.252716 49.41749
000010 e3 c6 6b 42 f7 ac 2a c2 00 71 32 c2 95 8b ea 41
       58.944225 -42.66891 -44.61035 29.318155
000020 c3 45 68 c2 a8 02 b4 c2 97 f7 70 c2 09 14 7d c2
       -58.068127 -90.00519 -60.241787 -63.269566

conv_1.conv.1.running_var f4 [12]
000000 03 0a 19 44 b2 23 06 45 0d ab f6 44 dc c8 d9 44
       612.15643 2146.231 1973.3453 1742.2769
000010 04 96 d4 44 79 35 e1 44 ef 38 ae 44 66 2b a7 44
       1700.688 1801.671 1393.7792 1337.3562
000020 e8 20 21 45 fd f7 8d 45 a7 6c 67 45 0f ab 27 45
       2578.0566 4542.9985 3702.7908 2682.6912

conv_2.conv.0.weight f4 [24, 12, 2, 2]
000000 b8 0c d8 3d 22 4e 57 3c e0 6a 73 bc 82 38 c6 3b
       0.10549301 0.013141187 -0.014857024 0.0060492167
000010 89 6f 25 be d9 66 08 bd c7 4c 0c be c6 a0 c8 3d
       -0.16155829 -0.03330121 -0.13701163 0.0979629
000020 b6 0b 8b bd e1 54 09 3d 19 e5 ca bc d5 1d af 3d
       -0.06789343 0.033528212 -0.024767445 0.08550612
000030 55 5c b3 bc 0d 6c cd bc 0e f6 f0 bc 48 6f 34 bc
       -0.021894613 -0.025075937 -0.029414203 -0.01101286
000040 c9 93 1f bd 10 15 d7 bb 3e 4f 0b 3d de 10 38 bd
       -0.0389593 -0.00656379 0.034011118 -0.04493796
000050 58 a0 3e 3d 1f 13 47 3c 6f e1 a7 bc 7c 79 ef bc
       0.046539634 0.012150555 -0.020493237 -0.029232733
000060 ea a9 3a bc 46 03 ef 3d 5a ce 47 3d 0a 85 02 3e
       -0.01139305 0.11670546 0.048780777 0.12746063
000070 3a 63 85 3b d9 bf 10 bb 3b 42 32 3d 92 fc 01 3d
       0.0040706666 -0.0022087006 0.043520194 0.03173501
000080 34 60 63 3d 86 86 5d 3d f8 3a 7d bc 1e 15 75 bd
       0.05551167 0.05408337 -0.015455954 -0.059834592
000090 7a d8 00 3c 45 78 24 be f8 21 13 3d 7d 34 12 be
       0.007864112 -0.16061504 0.035921067 -0.14277835
0000a0 46 45 2c 3e 7b 31 e1 bc a4 52 51 3e 11 9c 64 bc
       0.168233 -0.027489414 0.20441681 -0.013953225
0000b0 51 a3 41 3d aa 47 20 3e eb 09 a4 bc f0 c8 a6 bd
       0.04727489 0.15652338 -0.02002426 -0.081437945
0000c0 5e 06 ed 3b a6 ba f6 3d 80 3f db bc 5b d1 ad bd
       0.007233425 0.12047319 -0.026763678 -0.08487197
0000d0 46 57 e9 bd 36 a6 cf bc 8a 12 18 be 6a 0a 5d 3d
       -0.11393599 -0.02534781 -0.14850822 0.05396501
0000e0 e2 46 cc 3d 23 25 1a bd 8d 0d 1c 3e 16 53 2e 3d
       0.09974457 -0.037633073 0.15239544 0.042559706
0000f0 62 51 d2 3c fc 7c 9d 3d 3a 05 81 3c 6f ae 9d 3c
       0.025673572 0.076898545 0.015749563 0.019248215
000100 41 dd 3f bc 86 83 77 bd 96 5f 0f bc ba bb ab bd
       -0.011710466 -0.060428165 -0.008750817 -0.083854154
000110 24 3d 2e 3d 95 ae eb bd 31 b2 fa bd 55 6e 0c 3c
       0.042538777 -0.11507908 -0.122410186 0.008571227
000120 94 d5 dd bd ef e6 bb 3d d8 78 50 3d 11 f8 ec 3d
       -0.108317524 0.091749065 0.050896496 0.115707524
000130 45 84 3b 3d 46 f6 9c bd d1 81 61 3c 07 c0 d3 bd
       0.04578044 -0.076641604 0.013763861 -0.10339361
000140 dd 87 ec bd a9 ca af bd f3 5f 4e 3d ac 53 0e be
       -0.11549351 -0.08583576 0.050384473 -0.13899106
000150 2b a0 cc bb 29 d6 4b be 93 75 7e 3c 09 25 a9 bd
       -0.0062446794 -0.19905914 0.015530962 -0.08259017
000160 b4 d4 fa 3c ac a2 22 be 83 0b 14 bd 22 49 bc 3c
       0.030619003 -0.15882367 -0.03614379 0.022984091
000170 e6 52 20 bd c3 0e 7a 3d 4d 5b 43 bd 19 d8 12 3c
       -0.039141558 0.061049234 -0.047694493 0.0089626545
000180 f5 2a 9d bd f9 95 d5 bc 1e 16 05 be 4c e8 1a 3d
       -0.07674209 -0.02607249 -0.12996718 0.03781919
000190 b5 94 19 be 9b f6 7c 3d 6e fa 91 bd f5 97 a8 bd
       -0.14998133 0.06175862 -0.07127844 -0.082321085
0001a0 c2 64 a9 bc ac f8 2d 3e 6a e2 a5 bd 2a 73 de bc
       -0.020677928 0.16989392 -0.08099826 -0.027154524
0001b0 8c c4 94 3d 6a 07 ac 3b ba 14 36 bd 65 51 f9 bc
       0.07264051 0.0052499073 -0.04445336 -0.03043432
0001c0 c1 8b d4 3c 83 55 54 3c 5c d1 f9 bc 2a 2a f2 3d
       0.025945546 0.012959841 -0.030495338 0.118244484
0001d0 b7 02 69 bd 19 c4 c9 bd 99 02 66 3d b3 da b1 bd
       -0.056887355 -0.09851856 0.05615482 -0.08684292
0001e0 f0 18 0d bd de bd 52 bd 58 11 2f 3e 85 b6 84 3d
       -0.03444761 -0.051450603 0.1709646 0.06480125
0001f0 0e 08 8c bc 91 26 1f bd 3d 53 35 bd 7b f6 7f bd
       -0.017093685 -0.03885514 -0.044268835 -0.06249092
000200 dc 38 e8 3d 90 ab 15 be b1 62 d0 bc 96 7b 27 bd
       0.1133897 -0.14616227 -0.025437685 -0.040889345
000210 3b 29 2c 3c c3 c8 9f 3d 58 23 e4 bd 53 eb f8 bb
       0.010507877 0.07801964 -0.11139554 -0.007596412
000220 ad 97 e5 3b 73 42 9c bd 97 71 3a be b4 f9 a8 bd
       0.0070066066 -0.07629862 -0.18207394 -0.08250752
000230 2a b9 28 3d cd 56 6d 3d 73 39 aa 3d 1e 91 b8 3d
       0.04119221 0.057944108 0.08311739 0.09012054
000240 f0 aa 00 be a2 72 83 3d aa 58 2e be 85 97 03 be
       -0.12565207 0.06418349 -0.1702601 -0.12850769
000250 69 da 44 bd 8d 77 29 be 0f 80 5f 3c eb ff 33 3d
       -0.048059855 -0.16549511 0.013641371 0.043945234
000260 21 fb bb bc c4 d9 b3 bd 5a ee 85 b8 97 a6 99 3d
       -0.022946896 -0.0878177 -6.386331e-05 0.075024776
000270 60 9f 35 bc 2f cf 6a bd 79 28 b3 3d 1d 98 c1 3b
       -0.011085361 -0.057326492 0.08747954 0.005908026
000280 a7 05 2b bc e2 fb 04 bd c4 e9 3d bd 23 74 9a 3d
       -0.010438359 -0.032466777 -0.046365514 0.075416826
000290 e8 36 40 bd 46 3b 0b bd f9 16 a7 bd 33 cf 09 bc
       -0.046927363 -0.033992074 -0.081586786 -0.008411217
0002a0 1a 38 4e 3d 50 37 30 be 99 95 64 3d 8c 09 e7 3d
       0.05034647 -0.172086 0.05580673 0.11281118
0002b0 50 30 63 3d e4 a4 57 3b 75 80 24 3d d0 f0 89 3c
       0.055465996 0.003290468 0.04016157 0.016838461
0002c0 51 bf ca bc 06 f4 f5 3d 75 02 12 3c 4f d9 ee bd
       -0.02474943 0.120094344 0.008911719 -0.11662542
0002d0 b0 b9 34 bd 72 8b 21 be 43 d7 ba bd ca 1f 21 be
       -0.044122398 -0.1577585 -0.09123089 -0.15734783
0002e0 89 60 01 bd 98 5d b7 bd 5d fa 0b be f9 7f 71 bd
       -0.031586204 -0.089533985 -0.13669725 -0.058959935
0002f0 f6 48 56 3d 41 a0 3a 3d 4d fe 38 bd 97 f6 98 bc
       0.052315675 0.045562986 -0.045164395 -0.01867227
000300 13 c6 b8 bd 22 07 12 bd 1f cf 9a 3d 9b d8 90 bd
       -0.09022155 -0.035651334 0.075590365 -0.07072564
000310 46 cb 90 bd 0a dd 0e bb 9b 7a 9b bd 6a 05 0b be
       -0.07070021 -0.002179923 -0.075917445 -0.13576284
000320 08 71 dd 3d a3 4d c7 bc d1 a6 b6 bd 24 76 b0 bd
       0.108125746 -0.024329012 -0.089185365 -0.086162835
000330 5e b0 7b 3b 37 59 14 3d 3e a1 1a 3d 30 bf f4 bc
       0.0038404684 0.036217894 0.03775143 -0.029876322
000340 17 56 cb 3c 71 1a 71 3d e1 e3 1c be 9c 24 fa 3d
       0.024821324 0.058863107 -0.15321304 0.12214014
000350 52 1a e0 bc fd e5 5f bd 52 fd 1f bc 0f 42 87 3d
       -0.0273563 -0.054662693 -0.009764986 0.066043966
000360 71 db d1 bd 6b 72 f9 3b fa 37 2c bd 27 e5 8f bc
       -0.10246933 0.0076125166 -0.04204557 -0.017565323
000370 e2 c8 c9 bc 88 91 32 3c 7b f5 b4 3d 58 bd ec bd
       -0.024631921 0.010898955 0.08835884 -0.11559552
000380 80 b4 4b 3d 41 aa 7e 3d c0 94 d3 3d 62 bf c7 3c
       0.049732685 0.062174086 0.10331106 0.02438325
000390 b6 67 6d bd 9b aa 78 3d 30 b9 18 3c b3 01 69 b9
       -0.057960235 0.060709577 0.009321496 -0.00022221245
0003a0 9f 24 30 bd 23 18 05 be a9 e4 f4 3d 01 80 ce 3d
       -0.043003675 -0.12997489 0.11957676 0.100830086
0003b0 4c 73 c2 3d 97 b2 0b 3d 02 5c 9f bd fc aa 73 bd
       0.094946474 0.034105863 -0.07781221 -0.059489235
0003c0 af 9c 64 bd ff 51 04 3e ee 45 12 3d 9a e9 30 3e
       -0.055813488 0.12921904 0.03571122 0.17276612
0003d0 bf b5 2a 3c 4d 5c 8b bd c6 89 c2 3c aa 86 b5 bc
       0.010419308 -0.06804714 0.023747336 -0.02215894
0003e0 77 26 9e bd 65 87 37 3d fb 65 b5 3d e8 6c 32 3e
       -0.0772218 0.044806857 0.08857342 0.17424357
0003f0 8d f7 cb 3c 7f 3e f7 3d b0 1b dc 3c 01 cc b2 3d
       0.024898315 0.12072467 0.026868671 0.08730317

conv_2.conv.0.bias f4 [24]
000000 ad 22 52 3d bf bc 56 3b 6b f0 df bd 1b 58 fe bd
       0.0513026 0.003276631 -0.10934528 -0.124191485
000010 0f b0 96 bc bf de 0b 3e 6b 1a 9f bc 5b 71 cc 3d
       -0.018394498 0.1365919 -0.019421777 0.09982558
000020 ec 72 0c be 30 0a ed 3d b1 f3 b6 3d 27 f3 9b 3c
       -0.13715714 0.11574209 0.08933199 0.019036843
000030 1e df 93 3d f6 cb 37 3d 6b f4 80 3b 31 2b 40 3d
       0.072202906 0.044872247 0.003935387 0.04691619
000040 0c 68 ca 3d 94 11 89 3d 4f 0d f2 3d 0b 44 08 3e
       0.098831266 0.06692806 0.11818945 0.13307206
000050 2d 24 a3 bc 8f 0c f6 3c 27 c2 b6 3d c6 2b a0 bd
       -0.01991471 0.030035285 0.0892375 -0.07820849

conv_2.conv.1.weight f4 [24]
000000 a6 87 c2 3f 10 d0 76 3f 49 87 b3 3f ae 50 a5 3f
       1.5197647 0.9641123 1.4025661 1.2915246
000010 3c c5 9c 3f 35 58 73 3f 24 c5 b1 3f 9f 44 b3 3f
       1.2247691 0.9505647 1.3888288 1.4005316
000020 27 84 86 3f 69 91 ae 3f 70 fd a9 3f 17 f4 85 3f
       1.050908 1.3638126 1.3280468 1.0465115
000030 87 81 97 3f 51 91 9a 3f 5d 6f 87 3f 08 aa ac 3f
       1.1836404 1.2075597 1.058086 1.348939
000040 3c f2 b2 3f 4b 11 c6 3f 83 78 88 3f 56 13 8b 3f
       1.3980174 1.5474027 1.0661777 1.0865276
000050 2c e7 8b 3f c3 ca b8 3f ef 00 af 3f f6 64 ad 3f
       1.0929923 1.4436878 1.367216 1.3546436

conv_2.conv.1.bias f4 [24]
000000 f3 5e bf 3e d3 d3 92 bd 37 6b 8c 3e 77 a8 bf 3d
       0.37377128 -0.071693085 0.27425548 0.09358304
000010 af a3 bc 3d 98 57 cb bd 5e 84 83 3e 0b 34 9f 3e
       0.09210908 -0.099288166 0.25686926 0.31094393
000020 a0 d4 c9 bc 5c 8e 56 3e 59 7d 87 3e 9f 37 5a bd
       -0.02463752 0.20952743 0.2646282 -0.0532757
000030 0b b9 b4 3d 32 39 db 3d e1 cd f7 bc 2c 7e 80 3e
       0.08824357 0.107042685 -0.030249538 0.25096262
000040 d0 fd 69 3e 6c b8 ae 3e 1e a9 4c bd 21 3a 66 3c
       0.22850728 0.34125078 -0.04996597 0.014051945
000050 57 43 44 bd f7 99 96 3e 38 ca 7a 3e a5 1a 89 3e
       -0.047915783 0.2941434 0.24491203 0.2677814

conv_2.conv.1.running_mean f4 [24]
000000 d8 21 09 3f 2c 2b ba be 50 8c 1e bf eb 9f 6e bf
       0.53567266 -0.36361063 -0.6193285 -0.93212765
000010 78 94 6b 3d 33 1b 64 3e f5 2b f7 be 56 5c 28 3f
       0.057514638 0.22276 -0.48275724 0.65765893
000020 3f 98 9e be c7 41 93 3e 25 31 0f 3f 64 a2 29 3f
       -0.3097553 0.28761122 0.55934364 0.66263413
000030 34 0c 3e bf 4d fc 78 be c1 7c cb be cd a3 d2 be
       -0.7423737 -0.24314995 -0.39743617 -0.41140595
000040 c8 bb 6e bf cb 64 fd be 7d 61 16 be dd 7e 1b 3f
       -0.9325528 -0.4949096 -0.14685626 0.60740453
000050 b0 c5 a5 3f 0b 22 d2 3e bf ce 82 be a1 10 15 3f
       1.2950954 0.41041598 -0.2554836 0.582285

conv_2.conv.1.running_var f4 [24]
000000 5b ef 3a 3d c4 58 a9 3d 5a d6 93 3d 5d e3 b0 3d
       0.045638423 0.08268884 0.07218619 0.08637116
000010 e2 6f 08 3d 2d 19 97 3d 07 15 53 3d cd d6 d4 3d
       0.033309825 0.07377849 0.051533725 0.103925325
000020 1e 7a 1b 3d be 78 85 3d fa 43 0c 3e bd 0b f6 3c
       0.037958257 0.0651717 0.13697806 0.030034894
000030 2a ba f6 3d 1a fd 7a 3d 5b a2 de 3c 79 ae a9 3d
       0.12047227 0.061276533 0.027177026 0.08285231
000040 9d 30 5f 3e 93 c7 b8 3d 54 09 11 3d 64 d4 8a 3e
       0.21795888 0.09022441 0.035409287 0.27115166
000050 4f 43 53 3d 96 78 b7 3c 98 b4 80 3d 69 d6 19 3e
       0.051577862 0.022396367 0.062844455 0.15023197

flaten.conv.0.weight f4 [1, 24, 1, 1]
000000 6b 3d 9d be 1a 9a 6f 3d 65 b9 ee be 69 a1 72 be
       -0.3071092 0.058496572 -0.4662582 -0.23694386
000010 f4 eb 51 be 3b 76 f1 3d 31 b9 e3 be 60 fa bb be
       -0.20500165 0.11790129 -0.44477227 -0.36714458
000020 c7 d0 fa 3d cd 2b 7d be af 48 d2 be a7 75 47 3e
       0.12246852 -0.2472374 -0.41071078 0.19478475
000030 01 76 53 be 64 0a 51 be c7 8a 1e 3e 87 ef dc be
       -0.20650484 -0.2041412 0.15482627 -0.43151495
000040 9f 21 86 be f0 7c b1 be 10 cc 5b 3e 53 fc 1f be
       -0.26197526 -0.34665632 0.21464562 -0.15623598
000050 b2 ae 93 3e 6b aa b9 be 65 5e f1 be 3d d1 be be
       0.2884422 -0.3626283 -0.4714233 -0.3726901
